src/saved_models/discriminator_push.pth (torch, 595800 bytes, 5 tensors)

model.0.weight f4 [256, 320]
0.028493399 -0.10563724 0.080025226 -0.013574263 -0.05942684 -0.0469283 -0.012384402 0.08097449
0.038772553 -0.07583742 -0.08437171 -0.07939478 0.007047639 0.008824172 -0.10872105 -0.038360994
-0.012448509 -0.104732186 0.111413755 -0.010663926 -0.04340703 -0.06862435 -0.040190015 0.044025056
0.03635696 -0.027993789 -0.09716836 -0.07027182 0.02836153 0.030652855 -0.02505688 -0.082162574
-0.05757112 -0.066851266 0.12674546 0.019568944 -0.058269747 0.005764055 0.009488555 0.05256069
-0.025409523 -0.05556523 -0.034782372 -0.052223656 -0.057005927 0.0022257066 0.017966405 -0.038578812
-0.066082634 -0.09464382 0.08365893 -0.0073769153 -0.0015719592 -0.07468911 -0.014535037 0.03454579
0.041746788 -0.1969834 -0.07414272 -0.06949688 -0.029484484 -0.037953895 0.02666288 -0.018514635
-0.026523877 -0.12584166 0.06326865 -0.025719373 -0.010314288 -0.022843027 0.010768162 0.009983016
-0.052709993 -0.09700129 -0.045971796 -0.12477272 -0.061531316 0.030017624 0.018716505 -0.013918755
-0.020011019 -0.10083421 0.08787561 -0.08978877 -0.060507316 -0.041231252 -0.07949862 0.046756513
-0.04043317 -0.08448955 -0.058053724 -0.12273495 -0.03392293 0.0061440966 0.016588433 0.007140097
0.00038375446 -0.11307807 0.061777048 -0.019216055 -0.026866665 -0.011974653 -0.05928982 0.046532612
-0.041578654 -0.039203495 -0.10765175 -0.11495813 -0.042033028 -0.010120911 0.023101673 0.00024611576
-0.009925775 -0.055277824 0.028531995 -0.056868993 -0.10294056 -0.056110993 0.022259325 0.094369195
-0.00928965 0.014680965 -0.08597764 -0.124962546 -0.03722383 0.054578803 0.036740705 0.034680918
0.0065279067 -0.074585535 0.018809788 -0.03476491 -0.0931976 -0.04586576 -0.0048079556 0.018306464
-0.049962312 0.0289796 -0.03217985 -0.084598824 -0.055926986 -0.028977761 0.008418446 0.021764986
0.025567017 -0.08525323 -0.007707971 -0.09025181 -0.10510241 -0.04880439 -0.051910993 0.02346227
-0.10315844 0.042094275 -0.087803416 -0.13980108 -0.0132530965 0.027078643 0.06652221 0.021000614
0.07343859 -0.15308718 0.0632523 -0.065705344 -0.042837456 -0.014463401 -0.013859473 0.03555147
-0.074107625 0.04502773 -0.07835455 -0.08499803 -0.017910346 -0.035149068 -0.0047282605 0.08434898
0.05070805 -0.1380873 0.082809605 -0.058137845 -0.07581663 -0.06954215 0.00775935 0.019340869
-0.060159788 0.043755352 -0.03511214 -0.06516 -0.010128379 0.046385393 0.029764198 0.06604165
-0.013404945 -0.07339776 0.07830001 -0.04861748 -0.11254095 0.025253553 -0.075329974 0.10895681
-0.07842414 -0.07909129 -0.03886257 -0.12957397 -0.10844918 0.012187523 -0.037571702 0.043448362
0.022003919 -0.14492728 0.05006674 -0.075315654 -0.05013177 0.0013060496 -0.064797856 0.05934173
-0.08480803 0.028986761 -0.050446928 -0.15164582 -0.069060564 -0.025288293 -0.0053709853 -0.013447019
0.013130212 -0.11071913 0.040255364 -0.086576425 -0.055024788 -0.07038772 -0.07180026 0.03526824
-0.042215157 -0.034363355 -0.044437468 -0.09048817 -0.0454312 0.06053561 0.017724616 -0.025371248
0.097100146 -0.15189281 0.019912856 -0.036587626 -0.05329092 -0.026265817 -0.05868102 0.116085395
-0.074305914 -0.052347228 -0.06315533 -0.05663391 -0.01061646 -0.046348996 0.026850972 0.016291732
00000000: fd6a e93c 5658 d8bd 44e4 a33d 9666 5ebc
00000010: 8f69 73bd e437 40bd f2e7 4abc f4d5 a53d
00000020: f8cf 1e3d a650 9bbd 13cb acbd bb99 a2bd
00000030: e2ef e63b 4393 103c 24a9 debd 6b20 1dbd
00000040: d5f4 4bbc d47d d6bd e52c e43d bfb7 2ebc
00000050: 92cb 31bd ec8a 8cbd 499e 24bd 9e53 343d
00000060: 09eb 143d 3b53 e5bc 3500 c7bd acea 8fbd
00000070: 7056 e83c b21b fb3c 1644 cdbc da44 a8bd
00000080: b2cf 6bbd 51e9 88bd 90c9 013e 0d4f a03c
00000090: 42ac 6ebd 66e0 bc3b e275 1b3c e149 573d
000000a0: a227 d0bc 5e98 63bd f677 0ebd 79e8 55bd
000000b0: 0c7f 69bd 29dd 113b 482e 933c d104 1ebd
000000c0: 5556 87bd 9ed4 c1bd 6055 ab3d 0dba f1bb
000000d0: 330a ceba 9bf6 98bd 5d24 6ebc e37f 0d3d
000000e0: aefe 2a3d 04b6 49be 23d8 97bd 6154 8ebd
000000f0: 7289 f1bc 8b75 1bbd 1d6c da3c 01ac 97bc
00000100: 9a48 d9bc a3dc 00be fe92 813d 6fb1 d2bc
00000110: 42fd 28bc 4d21 bbbc f26c 303c ce8f 233c
00000120: 6fe6 57bd 9da8 c6bd ec4c 3cbd d788 ffbd
00000130: 4308 7cbd 85e7 f53c 5b53 993c 7d0b 64bc
00000140: 26ee a3bc 2b82 cebd 21f8 b33d 2de3 b7bd
00000150: 85d6 77bd 1ae2 28bd 2cd0 a2bd c283 3f3d
00000160: 409d 25bd db08 adbd bec9 6dbd 765c fbbd
00000170: c5f2 0abd 6b54 c93b 77e4 873c 7af7 e93b
00000180: a732 c939 7a95 e7bd ee09 7d3d fd6a 9dbc
00000190: 7b17 dcbc 5631 44bc e2d9 72bd fb98 3e3d
000001a0: 614e 2abd d893 20bd 8578 dcbd 2b6f ebbd
000001b0: d32a 2cbd 2dd2 25bc b83f bd3c 1909 8139
000001c0: b89f 22bc 006b 62bd eebb e93c 76ef 68bd
000001d0: 80d2 d2bd a4d4 65bd 3059 b63c a344 c13d
000001e0: 9e33 18bc 6e88 703c 0b15 b0bd 5dec ffbd
000001f0: 0478 18bd 068e 5f3d 6c7d 163d 940d 0e3d
00000200: 0de8 d53b 4dc0 98bd fc16 9a3c a665 0ebd
00000210: 62de bebd bcdd 3bbd 0e8c 9dbb 70f7 953c
00000220: 48a5 4cbd a066 ed3c 05cf 03bd 2642 adbd
00000230: b213 65bd c562 edbc 86ed 093c 7c4c b23c
00000240: ec71 d13c 3f99 aebd 2693 fcbb f1d5 b8bd
00000250: ef3f d7bd 1de7 47bd 9fa0 54bd f233 c03c
00000260: bb44 d3bd 0c6b 2c3d 47d2 b3bd 0428 0fbe
00000270: 8423 59bc 08d4 dd3c cc3c 883d 7b09 ac3c
00000280: f966 963d e3c2 1cbe 6c8a 813d 8690 86bd
00000290: 5476 2fbd e7f7 6cbc d812 63bc 6b9e 113d
000002a0: bdc5 97bd ff6e 383d 5a78 a0bd 7213 aebd
000002b0: b8b8 92bc 78f8 0fbd 86ef 9abb 28bf ac3d
000002c0: 3fb3 4f3d c266 0dbe 1598 a93d f321 6ebd
000002d0: c045 9bbd 1d6c 8ebd 2542 fe3b be70 9e3c
000002e0: 1c6a 76bd d038 333d bfd1 0fbd 9b72 85bd
000002f0: 80f1 25bc 9cfe 3d3d 0cd4 f33c d840 873d
00000300: 6aa0 5bbc 9151 96bd c15b a03d 1f23 47bd
00000310: df7b e6bd 8ae0 ce3c 9a46 9abd bf24 df3d
00000320: d69c a0bd 9dfa a1bd 5c2e 1fbd 0aaf 04be
00000330: 9b1a debd 2dae 473c c9e4 19bd e9f6 313d
00000340: 9041 b43c d167 14be c812 4d3d 183f 9abd
00000350: f956 4dbd c12f ab3a bdb4 84bd 5010 733d
00000360: d5af adbd a575 ed3c 70a1 4ebd 0b49 1bbe
00000370: a06f 8dbd 6529 cfbc 17ff afbb e350 5cbc
00000380: 1a20 573c b6c0 e2bd cfe2 243d fb4e b1bd
00000390: ac61 61bd 7027 90bd 040c 93bd 6e75 103d
000003a0: cde9 2cbd 97c0 0cbd 1004 36bd dd51 b9bd
000003b0: 1116 3abd 30f4 773d 3733 913c 5dd7 cfbc
000003c0: 71dc c63d ca89 1bbe 4920 a33c e8dc 15bd
000003d0: 9447 5abd 692b d7bc 825b 70bd 2ebe ed3d
000003e0: b32d 98bd 0c6a 56bd 9557 81bd f5f8 67bd
000003f0: a9f0 2dbc 72d8 3dbd 92f6 db3c 3d76 853c

model.0.bias f4 [256]
-0.15833421 -0.14669935 -0.23703095 -0.3811013 -0.17358321 -0.34333465 -0.22637384 -0.099002026
-0.20572758 -0.077211626 -0.30380666 -0.2445785 -0.23924887 -0.008024479 -0.10262144 -0.30275902
-0.3372793 -0.12828225 -0.31898773 -0.1547159 -0.11122177 -0.31418124 0.06251934 -0.28728262
-0.1604339 -0.11630839 -0.13925256 -0.13315475 -0.1516368 -0.29993346 -0.23144282 -0.3405228
-0.11765358 -0.29175353 -0.118014745 -0.034044027 -0.21842223 -0.3824305 -0.1866262 0.01974569
-0.13345185 -0.051969122 -0.003749789 -0.22836557 -0.15179905 -0.099423565 -0.21854489 -0.2692298
-0.39963448 -0.19390123 -0.17712449 -0.09166181 -0.12485823 -0.28014958 -0.2210803 -0.18184435
-0.12691261 -0.06711145 -0.1946188 -0.06510364 -0.13302974 -0.021568319 -0.2097761 -0.15681803
-0.029901706 -0.25065115 -0.061621185 -0.3348537 -0.11359087 -0.4763324 -0.14272293 -0.33310464
-0.09691325 -0.26128528 -0.4005694 -0.40640363 -0.12217076 -0.038414493 -0.06897258 -0.25918058
-0.09581348 -0.025670772 -0.35309818 -0.15142645 -0.07907595 -0.4231904 -0.27306283 -0.28684032
-0.39478552 -0.28227523 -0.27820787 -0.099743865 -0.48362502 0.0034186905 -0.39050397 -0.14559421
-0.4809798 -0.31708083 -0.04398549 -0.3479065 -0.08219346 -0.3047078 -0.14338906 -0.35886565
-0.17956342 -0.039087523 0.062049847 -0.023939537 -0.3134609 -0.36261427 -0.25533783 -0.012211871
-0.12642166 -0.17525443 -0.4471889 -0.061787087 -0.38817558 -0.12988164 -0.38271517 -0.004953064
-0.20606184 -0.053022735 -0.21820518 -0.11003683 -0.43501303 -0.4374209 -0.08961282 -0.2677141
-0.23884074 -0.12680478 -0.22318383 -0.21865885 -0.2887119 -0.18026367 -0.1530454 -0.28714716
-0.14628455 -0.12621513 -0.42378116 -0.24752136 -0.17027144 -0.12329182 -0.18068542 -0.011510981
-0.43406105 -0.23492487 -0.4005013 -0.43435392 -0.15196256 -0.44108316 -0.23236838 -0.14224482
-0.3283794 -0.5077234 -0.14834407 -0.10094648 -0.12394049 -0.082208514 -0.41051558 -0.22080138
-0.32550776 -0.151944 -0.038886618 -0.24076517 -0.031947676 -0.42030966 0.032919493 -0.2718964
-0.11845929 -0.13216028 -0.32477322 0.08255874 -0.30509457 -0.09336417 -0.1469028 -0.3367554
-0.043652818 -0.1469281 0.075683124 -0.53602403 -0.22131485 -0.06038713 -0.12420871 -0.3612644
-0.36040208 -0.046484593 -0.11089193 -0.1856021 -0.67908484 -0.28370312 -0.21116559 -0.26990753
-0.07183896 -0.38517317 -0.1775512 -0.12408746 -0.27054963 -0.33446848 -0.17659412 -0.1434143
-0.28870374 -0.2695038 -0.30129236 -0.3724355 -0.03581857 -0.05660948 -0.0130649805 0.028003903
-0.10719707 -0.5481411 -0.2825461 -0.15462816 -0.07706539 -0.16646855 -0.36762264 -0.22373062
-0.3980464 -0.05663504 -0.32705384 -0.18583699 0.04165593 -0.2939906 0.007558359 -0.14995825
-0.07467413 -0.022289678 -0.13018434 -0.19546431 -0.16672389 -0.30315182 -0.45358646 -0.30241448
0.00040575862 -0.2779542 -0.14469017 -0.061600592 -0.3354284 -0.055495508 -0.2951828 -0.3880487
-0.35530892 -0.583491 -0.013659189 -0.035531938 -0.030857464 -0.53399837 -0.113119416 -0.042385288
-0.2996205 0.0884544 -0.061199807 -0.36333963 -0.31806007 -0.081946895 -0.17282662 -0.3761006
00000000: 5d22 22be 5b38 16be 3eb8 72be b61f c3be
00000010: ccbf 31be 8fc9 afbe 8bce 67be 93c1 cabd
00000020: 40aa 52be 2121 9ebd 8c8c 9bbe c972 7abe
00000030: a8fd 74be 1b79 03bc 312b d2bd 3b03 9bbe
00000040: dfaf acbe 6c5c 03be 5c52 a3be d86d 1ebe
00000050: 3dc8 e3bd 5ddc a0be 240a 803d b516 93be
00000060: c948 24be 1833 eebd 3998 0ebe b859 08be
00000070: ad46 1bbe e190 99be 59ff 6cbe 0159 aebe
00000080: 5cf4 f0bd b860 95be b7b1 f1bd c071 0bbd
00000090: 14aa 5fbe eecd c3be f01a 3fbe b7c1 a13c
000000a0: 9aa7 08be 93dd 54bd 05bf 75bb aad8 69be
000000b0: 3671 1bbe 959e cbbd 3bca 5fbe 7dd8 89be
000000c0: e49c ccbe 0b8e 46be 1f60 35be 30b9 bbbd
000000d0: acb5 ffbd c46f 8fbe e062 62be 6835 3abe
000000e0: 61f5 01be ba71 89bd 274a 47be 0f55 85bd
000000f0: f338 08be 0bb0 b0bc 8ccf 56be e894 20be
00000100: 6cf4 f4bc 5955 80be 7f66 7cbd f271 abbe
00000110: 54a2 e8bd d7e1 f3be f625 12be b18c aabe
00000120: 747a c6bd 2fc7 85be 6f17 cdbe 2314 d0be
00000130: aa34 fabd 8458 1dbd 7f41 8dbd 51b3 84be
00000140: dc39 c4bd 834b d2bc 49c9 b4be 890f 1bbe
00000150: 92f2 a1bd 69ac d8be e4ce 8bbe bcdc 92be
00000160: 5421 cabe 6186 90be 4371 8ebe 8346 ccbd
00000170: b39d f7be 1c0c 603b 23f0 c7be a616 15be
00000180: fc42 f6be 6b58 a2be 212a 34bd cd20 b2be
00000190: 0b55 a8bd a902 9cbe 95d4 12be 3dbd b7be
000001a0: 79df 37be 3d1a 20bd fb27 7e3d d91c c4bc
000001b0: f27d a0be 94a8 b9be a4bb 82be 4d14 48bc
000001c0: ae74 01be e675 33be f2f5 e4be 7514 7dbd
000001d0: f3be c6be b1ff 04be 3ef3 c3be 504d a2bb
000001e0: e001 53be 5e2e 59bd 2e71 5fbe fd5a e1bd
000001f0: 07ba debe a2f5 dfbe ed86 b7bd d311 89be
00000200: ab92 74be 1dd9 01be 4d8a 64be 1be8 5fbe
00000210: 0cd2 93be 0a97 38be efb7 1cbe f404 93be
00000220: 9ecb 15be 8a3e 01be d8f9 d8be 3d76 7dbe
00000230: a35b 2ebe 6c80 fcbd 9905 39be 8e98 3cbc
00000240: 403d debe 2590 70be 820e cdbe a363 debe
00000250: 139c 1bbe a7d5 e1be faf1 6dbe a0a8 11be
00000260: 5821 a8be 29fa 01bf 82e7 17be 07bd cebd
00000270: 83d4 fdbd f05c a8bd 192f d2be c219 62be
00000280: f4a8 a6be 3597 1bbe 9347 1fbd 258b 76be
00000290: 91db 02bd d432 d7be 97d6 063d 0136 8bbe
000002a0: c99a f2bd 0655 07be ad48 a6be 8f14 a93d
000002b0: 5b35 9cbe b735 bfbd b06d 16be 346b acbe
000002c0: 4ccd 32bd 5274 16be c1ff 9a3d df38 09bf
000002d0: 5ca0 62be 7f58 77bd 2361 febd a6f7 b8be
000002e0: 9f86 b8be a166 3ebd 4f1b e3bd 7a0e 3ebe
000002f0: 81d8 2dbf 8941 91be cb3b 58be 5231 8abe
00000300: 4e20 93bd 6b35 c5be fbcf 35be 9121 febd
00000310: 7b85 8abe 743f abbe 17d5 34be 33db 12be
00000320: fad0 93be 67fc 89be fe42 9abe deaf bebe
00000330: 7eb6 12bd 58df 67bd 800e 56bc 7168 e53c
00000340: 238a dbbd fa52 0cbf e2a9 90be d856 1ebe
00000350: 76d4 9dbd bb76 2abe 0939 bcbe a419 65be
00000360: bdcc cbbe 25fa 67bd 9a73 a7be 0d4c 3ebe
00000370: 699f 2a3d f085 96be 1cac f73b a88e 19be
00000380: c0ee 98bd d898 b6bc 0b4f 05be cc27 48be
00000390: abb9 2abe b736 9bbe 7c3c e8be 12d6 9abe
000003a0: 00bc d439 0350 8ebe a929 14be e750 7cbd
000003b0: 45bd abbe 424f 63bd 3322 97be 52ae c6be
000003c0: 0deb b5be ab5f 15bf cbca 5fbc f089 11bd
000003d0: cbc8 fcbc 1eb4 08bf 27ab e7bd 329c 2dbd
000003e0: dc67 99be 9527 b53d a6ac 7abd a707 babe
000003f0: c5d8 a2be c6d3 a7bd 76f9 30be 4290 c0be

model.2.weight f4 [256, 256]
-0.039573386 -0.6234543 -0.3509809 -0.44161803 0.25542533 0.5279869 -0.3672947 -0.49475434
0.2832355 0.5518807 -0.5725205 0.96834534 -1.58322 -1.7678262 0.13967262 0.4656493
-0.96956295 -1.3604075 0.3391117 -0.8082402 -1.1507955 0.19133765 0.58344835 -0.071353234
-0.3257738 0.015525132 -0.00013454467 -0.68828046 -0.47961256 0.9494696 -0.23801722 -0.034170605
0.03746149 -0.4566548 0.38729873 -0.50872594 0.52058625 -0.28683716 0.017999085 -0.32320818
0.62477654 -0.52676314 -0.55806124 0.28307047 -0.55223554 -0.051328495 0.0039237104 0.23072615
-0.16368312 0.27384764 -0.7548338 -0.031126846 0.09689734 -1.3433027 -0.14737062 -0.2583365
-0.025156079 0.41261274 -0.66483945 -0.9316201 -0.65002733 -0.034397487 0.43734172 -0.013034933
-3.8611066 -0.2078191 0.01580599 0.3096782 -0.20345803 0.016176641 0.35960472 -0.41721365
0.031887904 -0.8163359 0.12575372 -1.2812592 0.3142954 -0.024327435 0.30741385 0.11036608
-0.14879137 -0.4680431 0.33458713 0.1372385 -0.05535263 -0.016037418 0.74233675 -1.0322725
0.46765888 0.07315659 0.84754974 -0.057924803 0.051902287 -0.045358945 -0.79211515 -0.06780922
-0.027184123 0.66146857 -0.059015106 -0.03705638 -0.20183471 -0.33970326 0.062580496 -0.53658336
-0.31877238 0.6201692 -0.411107 0.2534577 -0.10657692 -0.3554108 -0.053433046 0.17377163
-1.0536114 -0.3314529 0.13315873 -0.5210243 -0.5996874 0.0446978 -0.078613475 -0.49274522
0.09497371 -0.047856957 -0.6925902 -0.5564725 -0.33691424 -0.46002486 -0.47336596 -0.7479747
0.06298229 0.044600904 -0.011043526 0.3441006 -0.20327842 -1.2865945 -0.3082564 -0.81551975
-0.51923436 -0.0022115037 -1.605962 -0.01763889 -0.38886926 -0.063193575 -0.98399824 -0.055231538
-2.6142316 -1.5741006 -1.5333304 0.68561465 0.04172962 0.0686214 -0.6256855 0.72322315
-0.24385726 0.30154052 0.10408337 0.28336298 -0.8842013 -0.038708866 -0.04347592 -0.25227913
0.08361601 0.3249208 -0.73755157 -0.22988974 -0.79057556 -0.19278932 0.012911671 -1.9375378
-0.24974523 -0.8550435 -0.60891795 -0.31412885 -0.2184581 0.111694 -0.017927611 -1.3692822
-0.01938742 -0.2850603 -0.1481766 -0.1101268 -0.17585455 -0.5217156 -1.2499675 -0.09884892
-0.24845561 0.026689833 -0.01712238 1.0149509 -0.14325596 0.41622928 -0.1818034 0.43784988
-0.12859063 -0.3425685 0.26110628 -0.75059766 -0.31967983 -0.027419815 0.14897521 -0.001469925
-0.07107826 -0.08274275 0.011822047 -0.0461255 0.3641498 -0.5904359 -1.3259327 -0.35455492
-0.02463443 -0.21036033 -0.016160985 -0.022581544 0.05952945 -0.4302115 -0.85049146 -0.04165405
0.024025988 -0.6712817 -0.57037705 -0.63230824 0.327778 0.021542022 0.019303994 -0.9788627
-0.25459602 -0.05430054 -0.023253918 -1.2771523 0.24200979 -0.9095056 0.32266402 -0.9726434
0.24507973 0.31286603 -0.11749641 -0.01946592 -1.1463507 -0.32796654 -0.122596554 -0.06291869
-0.29787502 0.5690167 -0.6172032 -0.011343968 -0.67338645 -0.0038080432 -0.2392693 -0.27852646
-1.6231296 0.0302676 -0.13109942 -0.29899678 -0.3396967 -0.73304135 -0.035793684 -0.6227745
00000000: b417 22bd b39a 1fbf c5b3 b3be c21b e2be
00000010: 1cc7 823e 262a 073f 0d0e bcbe 7150 fdbe
00000020: 3e04 913e 0e48 0d3f b490 12bf 7be5 773f
00000030: f4a6 cabf 2148 e2bf 5706 0f3e 9669 ee3e
00000040: 4735 78bf d521 aebf 0ca0 ad3e d4e8 4ebf
00000050: 444d 93bf 04ee 433e df5c 153f a521 92bd
00000060: d3cb a6be 205d 7e3c 8f14 0db9 2633 30bf
00000070: c78f f5be 7110 733f c9ba 73be 7af6 0bbd
00000080: 3871 193d a8ce e9be 054c c63e dd3b 02bf
00000090: 2445 053f 52dc 92be d172 933c 8b7b a5be
000000a0: 5bf1 1f3f f3d9 06bf 1add 0ebf 9dee 903e
000000b0: 4f5f 0dbf d43d 52bd 7892 803b 7a43 6c3e
000000c0: 8c9c 27be c235 8c3e ca3c 41bf bafd febc
000000d0: 1d72 c63d 58f1 abbf 53e8 16be af44 84be
000000e0: 1f14 cebc fa41 d33e eb32 2abf a87e 6ebf
000000f0: 3168 26bf 61e4 0cbd 41eb df3e 7990 55bc
00000100: 5f1c 77c0 88ce 54be 907b 813c 248e 9e3e
00000110: 4d57 50be e084 843c 1c1e b83e 079d d5be
00000120: e49c 023d 64fb 50bf 95c5 003e 4d00 a4bf
00000130: 54eb a03e 544a c7bc 5965 9d3e 9d07 e23d
00000140: c45c 18be 58a3 efbe 014f ab3e 4088 0c3e
00000150: 70b9 62bd e760 83bc c809 3e3f 8121 84bf
00000160: fc70 ef3e 1fd3 953d 05f9 583f 8f42 6dbd
00000170: 7e97 543d 4dca 39bd 0fc8 4abf 8fdf 8abd
00000180: 3db1 debc 0156 293f d3b9 71bd 6ec8 17bd
00000190: c2ad 4ebe 96ed adbe 342a 803d 875d 09bf
000001a0: 2236 a3be 69c3 1e3f 9e7c d2be 35c5 813e
000001b0: 0045 dabd 68f8 b5be 9cdc 5abd 31f1 313e
000001c0: bddc 86bf 32b4 a9be c35a 083e d961 05bf
000001d0: 1d85 19bf 0a15 373d 1a00 a1bd 1a49 fcbe
000001e0: 9481 c23d a805 44bd 974d 31bf fb74 0ebf
000001f0: 0680 acbe 6188 ebbe 065d f2be 457b 3fbf
00000200: dcfc 803d 70af 363d e8ef 34bc f42d b03e
00000210: 3828 50be 21af a4bf c8d3 9dbe e7c5 50bf
00000220: 8bec 04bf e0ee 10bb 2a90 cdbf 6f7f 90bc
00000230: df19 c7be a26b 81bd 4fe7 7bbf 773a 62bd
00000240: 924f 27c0 217c c9bf 2c44 c4bf 7184 2f3f
00000250: aeec 2a3d 6089 8c3d ed2c 20bf 2725 393f
00000260: b8b5 79be 8563 9a3e a929 d53d f414 913e
00000270: 045b 62bf 308d 1ebd ce13 32bd bb2a 81be
00000280: df3e ab3d 055c a63e 2ed0 3cbf 3768 6bbe
00000290: 2963 4abf 906a 45be 798b 533c 3d01 f8bf
000002a0: 37bd 7fbe 21e4 5abf 0ce2 1bbf 7fd5 a0be
000002b0: 7bb3 5fbe d3bf e43d eddc 92bc a444 afbf
000002c0: 5ed2 9ebc 6cf3 91be 9bbb 17be 298a e1bd
000002d0: 3713 34be 278f 05bf effe 9fbf 4d71 cabd
000002e0: 266b 7ebe a3a4 da3c 3c44 8cbc e9e9 813f
000002f0: b1b1 12be 011c d53e ac2a 3abe dc2d e03e
00000300: 43ad 03be 2365 afbe b9af 853e 2b27 40bf
00000310: 13ad a3be 859f e0bc f58c 183e 80aa c0ba
00000320: 7b91 91bd 0875 a9bd 42b1 413c 18ee 3cbd
00000330: d871 ba3e cf26 17bf 2ab8 a9bf 3988 b5be
00000340: 25ce c9bc b368 57be 0b64 84bc eefc b8bc
00000350: 27d5 733d af44 dcbe cfb9 59bf 709d 2abd
00000360: 26d2 c43c 1ed9 2bbf 3b04 12bf f4de 21bf
00000370: 85d2 a73e e578 b03c 6923 9e3c bf96 7abf
00000380: 695a 82be 3e6a 5ebd 007f bebc ba79 a3bf
00000390: 6ad1 773e 5cd5 68bf 3834 a53e 28ff 78bf
000003a0: 2ef6 7a3e fa2f a03e f5a1 f0bd fe76 9fbc
000003b0: 9fbb 92bf 3beb a7be e713 fbbd 84db 80bd
000003c0: 1383 98be 14ab 113f 0701 1ebf 0ddc 39bc
000003d0: 0e63 2cbf 5d90 79bb 0303 75be 059b 8ebe
000003e0: b6c2 cfbf c2f3 f73c ed3e 06be 1b16 99be
000003f0: baec adbe 99a8 3bbf 669c 12bd 266e 1fbf

model.2.bias f4 [256]
-0.24661835 -0.38634092 0.122266814 0.1016586 0.3228229 -0.37856248 -0.5145986 0.48356548
-0.1741459 -0.04229841 0.21203606 -0.71225846 -0.06393375 -0.24574083 -0.31685424 -0.4625886
-0.08129874 -0.0035760284 -0.8177406 0.010688311 -0.22730745 0.081349224 -0.12189795 -0.36733055
-0.17957218 0.33183098 0.21847634 -0.63525075 -0.15229422 0.032014593 0.30123547 0.11387032
0.12783891 -0.39100844 -0.55226076 -0.12742661 -0.13216223 0.22280326 -0.3178431 0.1622441
0.049989093 0.28374246 -0.11788285 -0.105809815 -0.8310887 0.2949174 -0.286021 -0.29868144
-0.0741263 0.19602507 0.19293556 0.6662127 0.0464261 -0.02658719 -0.04965428 -0.1186325
-0.041855857 0.13279818 -1.2322198 -0.0832663 0.19022082 -0.21068949 -0.039250333 0.113709554
0.2883988 -0.0040011965 -0.051624205 0.21349445 -0.42588887 -0.2768383 -0.45412672 0.2972552
-0.35541245 -0.5978728 0.44491956 -0.11219578 -0.3092598 -0.09444871 -0.2763092 -0.21756756
0.0065780478 0.14197847 -0.21451339 0.020349277 -0.04229536 0.023801683 -0.16448511 0.008271316
-0.7791126 0.37180674 -0.08264947 -0.09220132 -0.22565563 0.13885112 -0.06508211 0.3971763
0.27620298 -0.017166875 0.34674647 -0.09173018 0.19183712 -0.17462692 -0.21548207 0.17995961
-0.18032365 -0.034942273 -0.30897155 0.09331573 0.11118493 0.2674483 -0.8159846 0.1303951
-0.5984151 -0.3686717 -0.18403725 -0.50110984 -0.013186555 -0.13693188 -0.1845231 0.34016517
0.20803578 0.23095751 -0.21957843 -1.0349157 0.20929368 -0.17038278 0.6020034 -0.5305618
0.31883118 -0.2314105 0.15275836 -0.6537187 -0.21419214 0.12360398 -0.40951538 -1.1916087
-0.021160368 -0.16756141 -0.5278298 -0.15586434 -0.2756135 -0.043226156 0.06277238 0.34445775
0.19686882 -1.099496 -0.31909513 0.11525653 0.33127078 0.25861496 -0.2842264 0.325169
0.47441673 0.42465344 0.18543263 0.08298349 0.28255063 -0.6086971 0.0052623227 0.35612226
0.17348577 0.0827997 0.10349729 0.19409882 -0.19262125 -0.5151107 -0.29827303 0.38438532
-0.22251676 -0.3681285 0.33266675 -0.21026449 -0.56266123 0.061088916 -0.3258607 -0.022815997
-0.20844877 -0.41870314 0.31315416 0.042272832 0.02010755 -0.42458367 0.46296945 -0.53423077
-1.1282308 0.1664661 -0.075537406 -0.19734578 0.18971778 -0.26707962 0.40213117 0.062419396
0.09334644 -0.072361894 0.30105388 -0.5879175 0.08317463 -0.040472746 -0.15659775 0.13932554
-0.3659475 0.2254062 0.013935001 -0.032389913 6.97409e-05 0.3297046 -0.40931994 0.43805698
-0.30291915 -0.031509705 -0.04569114 -0.13199484 0.07196215 0.13372886 -0.41727248 -0.22008428
0.0007934693 0.16433936 0.11108015 0.0451863 -0.28076074 0.35280943 -0.530454 -0.20419513
-0.72755796 -0.0054461164 0.29337752 -0.0634234 -0.115425825 -0.0024288709 0.21490403 0.019436648
-0.8086114 0.08954556 -0.13893276 -0.8448257 -0.61663043 -0.4670788 -0.094935335 -0.0035182494
0.09064419 -0.6640122 0.11206694 -0.07346233 0.08180031 -0.15395549 0.15227784 -0.002739955
0.3781097 -0.05148703 0.12118512 -0.47192112 -0.57250386 -0.21501264 0.172101 -0.47432962
00000000: 8589 7cbe 7ace c5be 0667 fa3d 6232 d03d
00000010: 0b49 a53e f1d2 c1be bcbc 03bf e595 f73e
00000020: 4e53 32be 1941 2dbd fb1f 593e 9256 36bf
00000030: b3ef 82bd 7ca3 7bbe b83a a2be 6ad8 ecbe
00000040: f47f a6bd cd5b 6abb 7357 51bf 071e 2f3c
00000050: 49c3 68be 6c9a a63d a2a5 f9bd c012 bcbe
00000060: c5e1 37be c0e5 a93e 43b8 5f3e cb9f 22bf
00000070: 04f3 1bbe bc21 033d 893b 9a3e d834 e93d
00000080: 34e8 023e 4232 c8be f660 0dbf 1f7c 02be
00000090: 8955 07be 8a26 643e 55bc a2be 5123 263e
000000a0: 5dc1 4c3d b146 913e 906c f1bd d1b2 d8bd
000000b0: 3bc2 54bf 6aff 963e 5871 92be c6ec 98be
000000c0: 88cf 97bd ccba 483e e690 453e ea8c 2a3f
000000d0: 4b29 3e3d 61cd d9bc 4962 4bbd 99f5 f2bd
000000e0: 0c71 2bbd 3ffc 073e 61b9 9dbf 8687 aabd
000000f0: 3fc9 423e fcbe 57be f5c4 20bd 8ee0 e83d
00000100: 02a9 933e 781c 83bb e773 53bd 4a9e 5a3e
00000110: 1b0e dabe c0bd 8dbe 4c83 e8be d531 983e
00000120: 9ff8 b5be 310e 19bf 7fcc e33e e7c6 e5bd
00000130: 4d57 9ebe 536e c1bd 6678 8dbe 08ca 5ebe
00000140: aa8c d73b ce62 113e 66a9 5bbe 87b3 a63c
00000150: e63d 2dbd bffb c23c c96e 28be 6a84 073c
00000160: ec73 47bf 745d be3e 2044 a9bd 0cd4 bcbd
00000170: 4512 67be fd2e 0e3e c549 85bd b15a cb3e
00000180: 7a6a 8d3e 8ca1 8cbc c188 b13e 08dd bbbd
00000190: f370 443e 66d1 32be 55a7 5cbe 5547 383e
000001a0: c3a6 38be a11f 0fbd 8531 9ebe 511c bf3d
000001b0: edb4 e33d fcee 883e 5ee4 50bf 4b86 053e
000001c0: bb31 19bf 89c2 bcbe 4374 3cbe bc48 00bf
000001d0: 6c0c 58bc df37 0cbe a0f3 3cbe 212a ae3e
000001e0: 5507 553e 2080 6c3e 2bd9 60be 1e78 84bf
000001f0: 1551 563e d378 2ebe e51c 1a3f e6d2 07bf
00000200: d73d a33e e0f6 6cbe b06c 1c3e 1c5a 27bf
00000210: 2f55 5bbe 1524 fd3d 00ac d1be a286 98bf
00000220: 8258 adbc 3895 2bbe db1f 07bf e79a 1fbe
00000230: 361d 8dbe e90d 31bd ce8e 803d c45c b03e
00000240: fb97 493e 49bc 8cbf 7060 a3be 9e0b ec3d
00000250: 539c a93e 2e69 843e 1f86 91be 8d7c a63e
00000260: c0e6 f23e 2d6c d93e 0de2 3d3e 3ff3 a93d
00000270: 7aaa 903e 93d3 1bbf 906f ac3b a855 b63e
00000280: 41a6 313e e492 a93d 63f6 d33d d7c1 463e
00000290: 813e 45be 4bde 03bf 3eb7 98be 27ce c43e
000002a0: 6fdb 63be 577b bcbe 4c53 aa3e 934f 57be
000002b0: 910a 10bf 5f38 7a3d 37d7 a6be 9de8 babc
000002c0: 9873 55be 4260 d6be be55 a03e 4726 2d3d
000002d0: 97b8 a43c 0863 d9be 550a ed3e 59c3 08bf
000002e0: de69 90bf 1776 2a3e 5bb3 9abd 0315 4abe
000002f0: 6145 423e a9be 88be 23e4 cd3e 7bab 7f3d
00000300: 6b2c bf3d 7932 94bd bc23 9a3e c381 16bf
00000310: 7657 aa3d c0c6 25bd 295b 20be 5bab 0e3e
00000320: 795d bbbe e2d0 663e a14f 643c 49ab 04bd
00000330: dc41 9238 0bcf a83e 6292 d1be 0149 e03e
00000340: 3818 9bbe 5210 01bd a226 3bbd a829 07be
00000350: e460 933d 38f0 083e bda4 d5be c65d 61be
00000360: d300 503a 9448 283e fd7d e33d 4515 393d
00000370: dfbf 8fbe 70a3 b43e d5cb 07bf 8718 51be
00000380: 3d41 3abf 5675 b2bb 9435 963e 21e4 81bd
00000390: 6064 ecbd b12d 1fbb cd0f 5c3e 9b39 9f3c
000003a0: 2801 4fbf aa63 b73d 6444 0ebe 7f46 58bf
000003b0: 7edb 1dbf f424 efbe 756d c2bd 6e92 66bb
000003c0: a9a3 b93d b4fc 29bf 5a83 e53d 6b73 96bd
000003d0: ec86 a73d 82a6 1dbe b9ee 1b3e d190 33bb
000003e0: 9897 c13e 10e4 52bd e72f f83d a59f f1be
000003f0: 9d8f 12bf 462c 5cbe 3f3b 303e 55db f2be

model.4.weight f4 [1, 256]
0.54212207 0.07613305 0.14804097 0.22277832 0.18264116 -0.08949809 -0.12647374 -0.2304504
-0.075241454 0.13350004 -0.17850535 -0.4153175 0.086828224 0.0567359 -0.15014139 -0.15330239
-0.17731744 -0.33495936 -0.16776274 -0.19028208 0.26490957 -0.20672198 -0.09317442 -0.043105472
-0.041235242 -0.3382136 0.09059183 -0.110661134 -0.064167805 0.13012578 -0.20995228 -0.06999036
0.14065501 -0.24266104 -0.1349566 0.071208104 -0.1505726 -0.2673963 -0.40967205 -0.16905797
-0.16751456 -0.14415458 -0.20137459 0.16640186 -0.20449889 -0.10935784 0.08213988 0.14871095
0.14027838 0.09650479 -0.19324392 0.21481949 -0.3017824 -0.21670793 -0.1945665 -0.3900213
-0.3734094 -0.13196729 -0.18393701 0.095267795 0.090435654 -0.021894092 0.3375029 0.18328178
-0.17843528 -0.24232996 -0.23398891 -0.18603103 -0.16019116 -0.15158933 -0.2851953 0.122355424
-0.18461332 -0.32824105 0.14964432 0.12633106 -0.14321889 -0.29522052 -0.064857 0.012979245
-0.11212801 -0.11189752 0.12407626 0.034492116 0.10331778 -0.37960532 -0.4690453 -0.22895561
-0.42100236 -0.2455186 -0.21581866 0.2510054 -0.405112 -0.20860018 0.105779424 -0.09880284
0.14071244 -0.16271771 -0.06379931 -0.1559144 -0.21149862 0.09824036 -0.16115756 0.12251892
0.20448361 0.5070601 0.049067505 0.20926955 0.11977317 -0.057303183 -0.090723716 -0.20915192
0.10258643 -0.14497544 0.0953176 0.5861102 0.17142966 -0.15941857 -0.008282514 0.22618206
0.14622349 -0.147994 0.010259406 -0.18084835 -0.19836138 0.175904 0.26060882 -0.70414925
0.1956291 -0.1599861 -0.20063646 -0.1327887 -0.18071488 -0.06442113 -0.3477428 -0.24558574
0.29531693 -0.18839754 -0.23180227 -0.0842102 0.022279304 -0.027804015 -0.0816147 -0.15933193
0.15562458 -0.34270364 0.3989096 -0.25181478 -0.24277975 -0.14531429 -0.29655892 -0.13713342
0.19376425 0.15820742 -0.16147569 -0.20423998 -0.22087994 -0.089028984 -0.17519931 0.23112668
-0.15539442 0.3318331 0.089977495 0.11714876 0.14134543 -0.24819659 -0.19822952 0.20543766
0.08447308 -0.0814189 -0.36486328 -0.17956807 -0.13638903 0.14695717 0.07821916 0.16374412
-0.46895143 -0.11863176 -0.1294348 -0.24901383 -0.092185475 -0.22183488 -0.15239292 -0.31557417
-0.13695733 0.2928266 0.08314577 -0.19074169 -0.4326071 -0.1881956 -0.28612462 0.123273246
0.20550916 -0.50011605 0.3149069 -0.12717082 -0.2309313 0.16462587 -0.16025291 0.17909344
-0.10398203 0.3830045 -0.061414562 0.122486904 -0.11020903 0.1707113 -0.1921115 0.20050615
-0.19243942 0.102254905 0.06275397 -0.04133031 0.50529736 0.08774241 -0.09107794 -0.23815466
-0.3388877 -0.19342309 0.4074607 0.123412564 0.4282476 -0.26627246 -0.081796825 0.08661327
-0.20212354 -0.14776129 0.18764892 0.14589334 -0.23162271 -0.20096427 -0.18955979 -0.3372666
-0.19050133 -0.34296986 -0.5376985 -0.180616 0.42736733 -0.4526573 -0.2081624 -0.12109173
0.17881812 -0.21993762 0.23987384 0.14950281 -0.13434775 0.08803217 0.07144381 0.11594675
0.2581329 -0.08764561 -0.22993036 -0.31037578 -0.27216604 -0.20631483 -0.044026725 -0.07503591
00000000: 83c8 0a3f a5eb 9b3d 0d98 173e 0020 643e
00000010: 4906 3b3e c64a b7bd 5582 01be 31fb 6bbe
00000020: 3118 9abd 3cb4 083e 1bca 36be 7fa4 d4be
00000030: ffd2 b13d e763 683d aabe 19be 4dfb 1cbe
00000040: b492 35be cb7f abbe ffc9 2bbe 4ed9 42be
00000050: 3aa2 873e edae 53be 3bd2 bebd 5d8f 30bd
00000060: 49e6 28bd 552a adbe 3688 b93d 4ea2 e2bd
00000070: 696a 83bd b13f 053e bbfd 56be 1b57 8fbd
00000080: de07 103e 237c 78be 1032 0abe 8ed5 913d
00000090: b42f 1abe 2be8 88be 89c0 d1be 881d 2dbe
000000a0: f088 2bbe 429d 13be 2435 4ebe 4065 2a3e
000000b0: 2868 51be 01f7 dfbd f438 a83d af47 183e
000000c0: 23a5 0f3e 4ea4 c53d bce1 45be a4f9 5b3e
000000d0: 3983 9abe afe8 5dbe 713c 47be dfb0 c7be
000000e0: 842f bfbe 6f22 07be fc59 3cbe c31b c33d
000000f0: 5436 b93d 3d5b b3bc 2ecd ac3e 38ae 3b3e
00000100: bdb7 36be 5825 78be ca9a 6fbe eb7e 3ebe
00000110: 2709 24be 3c3a 1bbe 1e05 92be 7b95 fa3d
00000120: 460b 3dbe 360f a8be 5c3c 193e ee5c 013e
00000130: f9a7 12be 2527 97be bfd3 84bd e6a6 543c
00000140: 5fa3 e5bd 872a e5bd b21b fe3d 9b47 0d3d
00000150: 4698 d33d a15b c2be b526 f0be 5773 6abe
00000160: 9f8d d7be 3a69 7bbe 91ff 5cbe c883 803e
00000170: d76a cfbe 499b 55be e2a2 d83d 2559 cabd
00000180: ec16 103e 799f 26be 36a9 82bd 06a8 1fbe
00000190: 1893 58be 3e32 c93d 7d06 25be 33eb fa3d
000001a0: 2764 513e b1ce 013f 02fb 483d c24a 563e
000001b0: a34b f53d beb6 6abd 5bcd b9bd ec2b 56be
000001c0: d618 d23d 7174 14be e035 c33d 510b 163f
000001d0: 428b 2f3e 9f3e 23be 62b3 07bc 459c 673e
000001e0: 9cbb 153e bd8b 17be 1117 283c 4f30 39be
000001f0: 3f1f 4bbe 2e20 343e 856e 853e 2043 34bf
00000200: ff52 483e 65d3 23be a573 4dbe c3f9 07be
00000210: 520d 39be 3aef 83bd 580b b2be d47a 7bbe
00000220: c833 973e 49eb 40be 935d 6dbe 6676 acbd
00000230: 1683 b63c 3fc5 e3bc 9c25 a7bd e927 23be
00000240: 0d5c 1f3e da76 afbe e13d cc3e deed 80be
00000250: 419b 78be 45cd 14be 92d6 97be b46c 0cbe
00000260: 236a 463e 2001 223e e259 25be 4924 51be
00000270: 5a2e 62be d454 b6bd 7367 33be 79ac 6c3e
00000280: b71f 1fbe 07e6 a93e 1f46 b83d b0eb ef3d
00000290: dbbc 103e 3f27 7ebe aefc 4abe 405e 523e
000002a0: 3900 ad3d f4be a6bd 5ccf babe b1e0 37be
000002b0: 91a9 0bbe f17b 163e 5e31 a03d 8aac 273e
000002c0: 671a f0be 35f5 f2bd 8e8a 04be 7bfd 7ebe
000002d0: bdcb bcbd af28 63be e40c 1cbe f092 a1be
000002e0: 8b3e 0cbe 5eed 953e 5448 aa3d ca51 43be
000002f0: ae7e ddbe 59b6 40be ed7e 92be af76 fc3d
00000300: fe70 523e 9b07 00bf 7a3b a13e 1139 02be
00000310: 4179 6cbe af93 283e 5719 24be 4564 373e
00000320: 88f4 d4bd 2a19 c43e d68d 7bbd 6ada fa3d
00000330: 46b5 e1bd f1ce 2e3e e1b8 44be 7c51 4d3e
00000340: d70e 45be 056b d13d 2785 803d f949 29bd
00000350: 2b5b 013f 4bb2 b33d 1287 babd d1de 73be
00000360: b082 adbe b410 46be b09e d03e babf fc3d
00000370: 4543 db3e dd54 88be 1885 a7bd 4c62 b13d
00000380: 79f9 4ebe bc4e 17be 0a27 403e 1065 153e
00000390: 812e 6dbe 94c9 4dbe f61b 42be 35ae acbe
000003a0: c812 43be bf99 afbe 9ca6 09bf 67f3 38be
000003b0: e4cf da3e b3c2 e7be 8628 55be f1fe f7bd
000003c0: 191c 373e 5437 61be 7da1 753e 4417 193e
000003d0: 7592 09be 364a b43d 2251 923d 7d75 ed3d
000003e0: ff29 843e 8b7f b3bd dd72 6bbe 93e9 9ebe
000003f0: 5959 8bbe 3244 53be 5e55 34bd 6dac 99bd
