src/saved_models/discriminator_drawer.pth (torch, 385910 bytes, 5 tensors)

model.0.weight f4 [256, 115]
-0.11184199 -0.2291208 0.047969196 0.013695869 -0.007542595 0.04717102 0.50533646 0.53219014
0.08599417 -0.010048141 0.24333233 0.2242845 0.03939169 0.005301953 -0.0918073 0.08832463
0.072888575 0.118983105 0.051959176 0.08617445 0.4094783 0.0007401204 0.007925081 -0.11509803
-0.32706055 -0.026272802 -0.021843405 -0.008306539 -0.21029545 0.7075656 0.3387179 0.055676308
-0.013523597 -0.01111422 0.22645435 -0.013660299 0.07883901 -0.08184997 -0.103994675 0.06847464
0.15518731 -0.031393766 -0.038676895 -0.00029174236 0.036513876 -0.040258158 -0.13081187 -0.26076806
0.031378213 -0.000288627 0.20327523 -0.26655966 0.6218909 0.27912787 -0.016993813 0.232263
-0.11170162 0.2257562 -0.10476485 0.06363632 0.3042404 -0.15171507 0.05703704 0.052793473
0.08524697 -0.1912123 -0.30053487 0.23715946 -0.0152849825 -0.044573493 -0.25116524 -0.050869834
-0.012191534 0.44500625 -0.32893872 0.8205394 0.20187275 0.024349852 0.3344669 -0.27085835
0.29348615 -0.1349986 -0.033566274 0.36042532 -0.16876364 0.115719326 -0.05717321 -0.0040375157
0.060117673 -0.0143188145 -0.03237533 -0.14166456 -0.13345994 -0.2600689 0.08334203 0.0782634
0.5834928 -0.31893116 0.84694487 0.25783306 -0.014699837 0.52389795 -0.032935124 0.259694
-0.2794052 0.06247233 0.4909999 -0.15458128 0.19917673 -0.13505259 -0.005218258 0.042847447
-0.09782701 -0.051399462 -0.0056762863 -0.12625307 -0.093327224 0.18240574 -0.045549165 -0.09401449
-0.15596706 0.103425846 0.14142293 -0.001088088 -0.21855241 -0.101158366 0.14220463 -0.31161258
0.0044527436 -0.121774726 -0.21113959 0.038820542 0.5007031 0.050530072 -0.0932109 0.05441683
-0.0665455 -0.12744604 -0.14516088 -0.2552681 0.14306319 -0.14979357 -0.22682357 -0.09295316
0.12929623 0.30289865 0.06534981 -0.09470716 -0.009127212 0.12853679 -0.30079585 -0.091488935
-0.14468929 -0.08268619 -0.015382168 0.38266578 -0.015419153 -0.07316871 0.038923997 0.15073384
0.011088106 -0.067967154 -0.13762185 0.38248193 -0.025171956 -0.15768844 0.060437914 0.030282488
0.21862034 0.08352948 -0.1245324 0.06902451 0.14684336 -0.35781226 -0.07425949 -0.10815057
-0.0054151346 -0.05240066 0.1885775 -0.033643976 0.02317595 -0.09253206 -0.11080756 -0.12382813
-0.08843531 -0.29798645 0.36466977 -0.06836954 -0.052757982 -0.051424768 0.13509491 0.25448695
-0.036407184 -0.15545286 0.115062654 0.13952453 -0.41240245 0.08933966 -0.20613812 0.103328235
-0.08000024 0.06353283 -0.020761747 0.0825252 -0.047134858 -0.0014060502 -0.03101662 -0.017770872
-0.27053273 0.4457375 -0.12351864 -0.4382016 -0.04774951 0.03838789 0.2946655 0.06971167
-0.4655289 0.17015436 0.20199515 -0.39969215 0.03529751 -0.35838905 0.08293459 -0.01809192
0.010028686 -0.022309951 -0.19789168 -0.24341656 -0.18085791 0.021500057 -0.07918583 -0.0017179132
0.27729803 0.04511015 0.25862315 -0.12415554 0.19639656 -0.044766802 0.0060728146 0.26940107
-0.06912471 -0.06639641 0.2699747 0.08781489 0.115482114 -0.08535662 -0.18160693 0.20524083
0.025332224 -0.069221616 -0.23719779 -0.04162564 0.11807746 -0.0942602 -0.030418983 0.06712065
00000000: 6a0d e5bd a59e 6abe 597b 443d a364 603c
00000010: df27 f7bb 6636 413d bb5d 013f 9d3d 083f
00000020: b61d b03d f5a0 24bc 1c2c 793e d6aa 653e
00000030: 2e59 213d 01bc ad3b 7705 bcbd 8be3 b43d
00000040: 9b46 953d 6aad f33d 25d3 543d 3b7c b03d
00000050: 24a7 d13e a404 423a 33d8 013c 84b8 ebbd
00000060: 7b74 a7be 0f3a d7bc f1f0 b2bc 2618 08bc
00000070: b157 57be 0523 353f 6f6c ad3e d70c 643d
00000080: 1492 5dbc 6b18 36bc a6e3 673e 72cf 5fbc
00000090: 5976 a13d f5a0 a7bd 29fb d4bd 6f3c 8c3d
000000a0: 6ce9 1e3e c096 00bd aa6b 1ebd fff4 98b9
000000b0: 938f 153d bde5 24bd 8cf3 05be 6483 85be
000000c0: 7186 003d dc52 97b9 6227 503e 827a 88be
000000d0: 3e34 1f3f d9e9 8e3e 9c36 8bbc 5ad6 6d3e
000000e0: d2c3 e4bd a22c 673e f48e d6bd c253 823d
000000f0: 66c5 9b3e 325b 1bbe ac9f 693d f83d 583d
00000100: f795 ae3d 28cd 43be b5df 99be eed9 723e
00000110: dd6d 7abc b292 36bd bb98 80be e35c 50bd
00000120: 00bf 47bc dcd7 e33e a86a a8be df0e 523f
00000130: bbb7 4e3e 5779 c73c 3f3f ab3e f2ad 8abe
00000140: d143 963e 133d 0abe ca7c 09bd ab89 b83e
00000150: 60d0 2cbe 41fe ec3d 752e 6abd 234d 84bb
00000160: f33d 763d 7699 6abc fe9b 04bd 8410 11be
00000170: b9a9 08be c027 85be 3aaf aa3d 9048 a03d
00000180: c95f 153f f24a a3be 61d1 583f b202 843e
00000190: 96d7 70bc 2d1e 063f fbe6 06bd 9df6 843e
000001a0: 330e 8fbe fce2 7f3d 5764 fb3e 8e4a 1ebe
000001b0: fcf4 4b3e 3a4b 0abe ecfd aabb ce80 2f3d
000001c0: 8759 c8bd 3e88 52bd 2400 babb 7c48 01be
000001d0: 5822 bfbd 92c8 3a3e c391 3abd ab8a c0bd
000001e0: d4b5 1fbe eed0 d33d 2cd1 103e 2d9e 8eba
000001f0: 34cc 5fbe 1e2c cfbd 179e 113e af8b 9fbe
00000200: 52e8 913b 0765 f9bd fa34 58be 4a02 1f3d
00000210: 142e 003f 9ff8 4e3d 5be5 bebd 2fe4 5e3d
00000220: 0249 88bd 3781 02be 0ea5 14be 80b2 82be
00000230: 287f 123e 7c63 19be 7044 68be 3a5e bebd
00000240: 3b66 043e 8815 9b3e 1fd6 853d d4f5 c1bd
00000250: 4d8a 15bc 269f 033e ea01 9abe 8d5e bbbd
00000260: 6e29 14be 6157 a9bd 7d05 7cbc c5ec c33e
00000270: 9da0 7cbc 7ad9 95bd c56e 1f3d f959 1a3e
00000280: e3aa 353c 5d32 8bbd beec 0cbe acd4 c33e
00000290: 6b35 cebc 1479 21be bf8d 773d fb12 f83c
000002a0: 03de 5f3e 8111 ab3d d80a ffbd b95c 8d3d
000002b0: 1b5e 163e 2b33 b7be 5c15 98bd 0c7e ddbd
000002c0: 7171 b1bb 13a2 56bd 761a 413e 44ce 09bd
000002d0: 7ddb bd3c 7381 bdbd 13ef e2bd 9a99 fdbd
000002e0: 921d b5bd ae91 98be ffb5 ba3e 5405 8cbd
000002f0: c118 58bd c7a2 52bd 5256 0a3e 1d4c 823e
00000300: b31f 15bd 092f 1fbe f8a5 eb3d 85df 0e3e
00000310: 6a26 d3be b6f7 b63d df15 53be c19d d33d
00000320: 2ad7 a3bd 801d 823d 8a14 aabc f902 a93d
00000330: 7b10 41bd 374b b8ba 9116 febc 3894 91bc
00000340: 4483 8abe b537 e43e 57f7 fcbd f65b e0be
00000350: fd94 43bd 9f3c 1d3d 65de 963e fec4 8e3d
00000360: ce59 eebe f23c 2e3e d1d7 4e3e 73a4 ccbe
00000370: 1f94 103d c57e b7be 9cd9 a93d 8235 94bc
00000380: 5c4f 243c 5cc3 b6bc 1ea4 4abe 3142 79be
00000390: d132 39be e320 b03c 2e2c a2bd 9a2b e1ba
000003a0: 02fa 8d3e 6cc5 383d 416a 843e 4245 febd
000003b0: 2e1c 493e 655d 37bd 76fe c63b f0ee 893e
000003c0: 4291 8dbd d7fa 87bd 203a 8a3e 4bd8 b33d
000003d0: e381 ec3d 74cf aebd 2bf7 39be a72a 523e
000003e0: 8685 cf3c 10c4 8dbd fae3 72be a67f 2abd
000003f0: 98d2 f13d 7e0b c1bd 3b31 f9bc 8d76 893d

model.0.bias f4 [256]
-0.008520548 -0.06772831 -0.17855902 -0.095431 -0.11666993 -0.08021511 -0.12871236 -0.050216652
0.025145471 -0.0800653 -0.051092107 0.091049515 -0.081504926 0.15247205 -0.23308066 -0.11005493
0.082064226 0.045397386 -0.06487053 0.09461407 -0.09721175 -0.112803906 0.07171675 0.066339225
-0.053076494 -0.08190814 -0.07518389 0.03226287 -0.19891697 -0.03492869 -0.036793627 -0.16639547
-0.033238433 -0.0054316516 -0.0790833 0.045708638 0.12699723 -0.06207714 -0.07565007 -0.15153933
-0.033278726 -0.1260449 -0.14104842 -0.020580225 -0.063293636 -0.120401226 0.10871313 -0.011829535
-0.07713922 -0.10192405 0.08611296 0.08845448 0.01395166 -0.006324604 0.06500948 0.073888466
-0.1822866 -0.15891878 -0.04352677 0.07431581 -0.1185353 -0.08638001 -0.108438924 0.12092939
-0.115822844 -0.09803074 -0.008972626 0.11674724 -0.05240407 -0.04159994 -0.12402415 0.0148445275
-0.12957989 0.011201575 -0.12318182 -0.05220275 -0.10079037 0.097528756 0.022122204 -0.21242617
-0.08942561 0.120077565 -0.0020795828 -0.01636903 0.10081953 -0.12566015 -0.0068775527 -0.06575506
0.013825172 -0.046671845 -0.14113028 -0.052762605 0.03461908 -0.0576478 0.02312463 -0.058110725
-0.010542776 0.061811827 0.040299427 -0.04218767 0.050169215 -0.033673964 -0.092618816 -0.15463293
-0.028379163 -0.007981113 -0.029026736 -0.12478701 0.025492929 -0.17563103 -0.09580211 0.12793243
0.03042845 -0.0689989 0.08920239 -0.008883009 -0.014844494 -0.055480596 -0.14953807 -0.07033266
0.07919116 -0.027956838 -0.031594723 0.13666458 -0.12370118 0.05300313 -0.104031295 -0.050479416
-0.06660301 -0.03672672 -0.06696109 0.012423394 0.099265344 -0.015495721 0.0023404881 0.118203245
0.058456328 -0.13837062 -0.06628164 -0.01637449 -0.08963826 -0.074536085 -0.06592303 -0.027330097
-0.06061878 -0.11329809 -0.15981808 -0.05060109 -0.09328711 -0.09409538 0.106680214 -0.13321774
-0.07959585 0.052269507 -0.10033959 -0.052071698 -0.18652272 -0.021068085 -0.081912175 0.07930607
0.09805354 0.0054898625 0.042312454 0.022873286 -0.1507281 -0.04052763 -0.03439019 -0.08806754
-0.18524757 -0.085132375 -0.1108437 -0.06948736 -0.1006219 -0.21116355 0.055486843 0.0018185036
-0.12531334 -0.083134815 0.0374747 0.01319986 0.03558513 -0.06290216 -0.076649584 -0.09220292
-0.087039396 0.038734645 -0.07851298 0.016978325 0.021142207 -0.028252643 -0.21705608 -0.045965355
-0.116454765 -0.15328445 -0.0365795 -0.09782088 -0.07483016 0.046634473 -0.003679917 -0.0573212
-0.09019017 -0.017853038 -0.110356525 -0.053176332 -0.044523556 -0.119061485 0.039248046 -0.124908015
-0.025378568 0.07761725 -0.059724916 -0.07513599 -0.06940066 0.04164794 -0.111279406 -0.09836993
-0.0360394 -0.08397485 -0.12833118 -0.12432894 -0.14710271 -0.063585855 -0.15014744 0.08854226
-0.19478999 0.042189345 -0.069896914 0.067568146 0.12644507 -0.092858255 -0.100554824 -0.055266164
0.04231362 0.003592903 -0.19169968 -0.034442272 -0.10825525 -0.061215345 -0.1158754 -0.17062964
-0.09047378 -0.054137297 -0.08709938 -0.019111844 -0.09832357 -0.0016010678 -0.08618141 -0.14161584
0.032856543 -0.013521074 -0.060711935 -0.08554225 -0.017099172 -0.118846305 -0.05728934 -0.032787837
00000000: c599 0bbc 24b5 8abd 2dd8 36be 5471 c3bd
00000010: a5f0 eebd d247 a4bd 2ccd 03be faaf 4dbd
00000020: e0fd cd3c 47f9 a3bd f545 51bd 2b78 ba3d
00000030: 0eec a6bd a221 1c3e b2ac 6ebe 7b64 e1bd
00000040: 4a11 a83d 9cf2 393d d7da 84bd 06c5 c13d
00000050: f416 c7bd bc05 e7bd 3be0 923d dcdc 873d
00000060: bd66 59bd 74bf a7bd 03fa 99bd 1226 043d
00000070: e4b0 4bbe 6311 0fbd eab4 16bd 9363 2abe
00000080: 0625 08bd fffb b1bb 6df6 a1bd fb38 3b3d
00000090: 900b 023e 9944 7ebd 6dee 9abd 202d 1bbe
000000a0: 464f 08bd ea11 01be ff6e 10be dc97 a8bc
000000b0: 18a0 81bd eb94 f6bd fda4 de3d aad0 41bc
000000c0: 2bfb 9dbd 8ebd d0bd fe5b b03d 9f27 b53d
000000d0: 8195 643c a03e cfbb b123 853d d652 973d
000000e0: 57a9 3abe 9bbb 22be 2049 32bd e332 983d
000000f0: a3c2 f2bd 01e8 b0bd 3a15 debd d4a9 f73d
00000100: 8734 edbd 57c4 c8bd ec01 13bc 2d19 ef3d
00000110: a6a5 56bd b364 2abd 6000 febd 7636 733c
00000120: 97b0 04be d086 373c c046 fcbd 8dd2 55bd
00000130: 2e6b cebd 28bd c73d a039 b53c 3f86 59be
00000140: c624 b7bd 3aeb f53d 9c49 08bb 5818 86bc
00000150: 787a ce3d 0ead 00be 185d e1bb 97aa 86bd
00000160: f982 623c fa2a 3fbd 7584 10be 9a1d 58bd
00000170: bdcc 0d3d 1920 6cbd dd6f bd3c 8305 6ebd
00000180: 9cbb 2cbc 662e 7d3d 0311 253d facc 2cbd
00000190: 3c7e 4d3d b6ed 09bd efae bdbd 1858 1ebe
000001a0: 6b7b e8bc 37c3 02bc 7ac9 edbc 5590 ffbd
000001b0: 8cd6 d03c 9fd8 33be e633 c4bd b800 033e
000001c0: 1645 f93c 4c4f 8dbd beaf b63d 0a8a 11bc
000001d0: 5236 73bc 9f3f 63bd 8220 19be 920a 90bd
000001e0: fa2e a23d bd05 e5bc 7869 01bd cdf1 0b3e
000001f0: 0b57 fdbd cf19 593d 5c0e d5bd 81c3 4ebd
00000200: 2967 88bd c26e 16bd e522 89bd 7e8b 4b3c
00000210: a14b cb3d c4e1 7dbc e062 193b 8b14 f23d
00000220: e76f 6f3d 07b1 0dbe abbe 87bd cb23 86bc
00000230: 4494 b7bd 60a6 98bd a702 87bd 5ee3 dfbc
00000240: 664b 78bd d408 e8bd 5aa7 23be 1743 4fbd
00000250: 500d bfbd 14b5 c0bd 287b da3d 3b6a 08be
00000260: 2603 a3bd 8d18 563d d87e cdbd 2249 55bd
00000270: d0ff 3ebe fa96 acbc 92c1 a7bd 396b a23d
00000280: 4bd0 c83d 4ee4 b33b d34f 2d3d c260 bb3c
00000290: 7858 1abe 4d00 26bd badc 0cbd c15c b4bd
000002a0: 8ab1 3dbe e259 aebd 0602 e3bd 644f 8ebd
000002b0: db12 cebd 423b 58be 2c46 633d db5a ee3a
000002c0: 2452 00be 9642 aabd 127f 193d 3a44 583c
000002d0: b7c1 113d d9d2 80bd 75fa 9cbd e2d4 bcbd
000002e0: b641 b2bd 38a8 1e3d 6acb a0bd 2116 8b3c
000002f0: 6c32 ad3c 1672 e7bc f343 5ebe 2b46 3cbd
00000300: d67f eebd 99f6 1cbe 63d4 15bd 5056 c8bd
00000310: 8e40 99bd ca03 3f3d c32a 71bb a2c9 6abd
00000320: a0b5 b8bd 8940 92bc 9a02 e2bd 6dcf 59bd
00000330: 555e 36bd 82d6 f3bd 8fc2 203d c6cf ffbd
00000340: b7e6 cfbc cbf5 9e3d 1da2 74bd e6e0 99bd
00000350: ef21 8ebd 0897 2a3d 75e6 e3bd 2d76 c9bd
00000360: 0d9e 13bd 02fb abbd 4069 03be 2ca0 febd
00000370: 18a2 16be 4d39 82bd 40c0 19be a555 b53d
00000380: 0777 47be bcce 2c3d 1d26 8fbd 2b61 8a3d
00000390: d17a 013e 782c bebd b0ef cdbd c65e 62bd
000003a0: 0c51 2d3d e976 6b3b ec4c 44be 5713 0dbd
000003b0: eeb4 ddbd f1bc 7abd 1550 edbd 89b9 2ebe
000003c0: 514a b9bd 12bf 5dbd 2961 b2bd 7190 9cbc
000003d0: de5d c9bd ecda d1ba e17f b0bd be03 11be
000003e0: 9594 063d 7f87 5dbc 14ad 78bd c630 afbd
000003f0: 9013 8cbc b165 f3bd 3aa8 6abd 8a4c 06bd

model.2.weight f4 [256, 256]
-0.17389311 -0.052146614 0.2377419 -0.61023927 -0.2640232 0.1386431 -0.14397429 -0.046249654
-0.15645126 -0.02345655 -0.10018042 -0.010953421 -0.011383348 0.02408761 -0.43164244 0.11167507
-0.08120373 0.037660036 0.067684256 0.091731824 0.1481046 -0.053844735 -0.39641908 0.046864294
0.029699842 0.039574962 -0.20592278 0.112107284 -0.23087037 0.23010202 0.7408934 -0.29229182
-0.20844729 0.10194691 -0.02421263 0.007907155 0.090375595 -0.072636664 -0.119849086 0.24803834
-0.22125499 0.006858694 -0.18350539 0.12088604 -0.17244543 0.01927458 -0.14340119 -0.016159542
-0.064148486 -0.021833282 -0.09284413 0.01485936 -0.07851663 0.058417417 -0.15133075 0.04594917
0.02410021 0.09723309 -0.2705284 -0.028416488 -0.2543322 -0.12641855 0.117248476 0.009609054
-0.102871716 0.28953603 -0.2955872 0.036757167 0.018090798 -0.22254539 0.0150839975 0.0013626178
-0.028165251 -0.1841579 -0.10497265 -0.15786166 0.07280797 0.01680124 -0.22971618 0.20446001
0.10155288 -0.16671209 0.007556437 -0.0044306633 -0.12222808 0.13801128 0.008331174 -0.0074100005
0.20778625 -0.044122282 0.0026032769 0.3577085 0.09378513 0.13317315 -0.4427068 0.029595032
0.03680109 0.14267929 -0.018238612 0.00878283 0.073350035 -0.24085055 -0.17779031 -0.58962834
-0.023210518 -0.02542234 0.027414938 -0.09479373 -0.13130093 -0.48373154 -0.23600093 -0.040669706
0.04100267 -0.07405322 0.04533059 0.378493 -0.044455647 0.04257651 0.22758809 0.050950114
-0.0078283725 0.10765811 0.00782596 0.0686587 0.12607233 -0.36000133 -0.020723011 -0.050847024
0.12854452 -0.11423716 0.04884739 -0.12619053 0.10662284 -0.4278701 -0.13986214 -0.085638896
-0.027807603 -0.30912748 -0.15461378 0.12090146 0.17149644 0.2927159 -0.11632551 0.12745838
0.25228018 0.060859267 0.18285747 -0.31655413 -0.021136489 -0.2042964 0.012041508 -0.056771375
0.096581526 0.075444795 -0.13429637 -0.008799756 -0.107342556 0.0067236978 -0.14507414 0.06985863
0.015544497 0.003903063 0.07410981 0.056560647 -0.33971155 -0.23493196 0.03612936 0.59750193
0.093995325 0.06835038 0.05495941 0.03989325 -0.23185593 0.4725147 0.044813912 0.0017297651
-0.10134325 -0.14707625 0.10307455 0.033149794 0.14875777 -0.046203714 -0.017466018 0.16906461
-0.021162858 0.005428853 -0.07312242 -0.2073735 -0.13515538 -0.1347983 -0.12831558 0.028766995
0.027640954 0.038008142 -0.060783677 0.2973511 -0.17989877 -0.3425674 0.2502747 -0.09502741
0.028021142 0.1103007 -0.14659414 -0.5460709 -0.0037078704 -0.20659907 -0.015116008 -0.1145439
-0.17530806 -0.056712486 -0.0457518 -0.19858566 0.08655916 0.040767778 -0.03791871 0.034507994
-0.018422617 -0.16319747 -0.27397066 0.02995002 0.18420197 0.4095387 -0.59466666 0.06356031
-0.43291578 0.05811048 0.0670685 0.0038934804 -0.09897644 0.014993001 0.10086632 -0.011691835
0.14424302 -0.16945785 0.255395 0.053660985 -0.16698962 -0.09726145 0.07677487 -0.038529687
0.021148192 0.027523654 -0.0098711895 -0.13869889 0.019874204 -0.034350336 -0.20818445 -0.22021554
0.078262575 -0.10027256 -0.26104996 -0.17622477 -0.1901144 0.3533911 0.08272444 0.2902701
00000000: 0911 32be b097 55bd 9d72 733e a438 1cbf
00000010: 0d2e 87be 75f8 0d3e ff6d 13be 4770 3dbd
00000020: c234 20be f327 c0bc 642b cdbd fa75 33bc
00000030: 3981 3abc 6153 c53c 3d00 ddbe e6b5 e43d
00000040: 244e a6bd 6941 1a3d 0b9e 8a3d e5dd bb3d
00000050: bba8 173e 4c8c 5cbd 71f7 cabe c6f4 3f3d
00000060: 154d f33c 5b19 223d 6cdd 52be 8198 e53d
00000070: 4869 6cbe dd9f 6b3e 31ab 3d3f 46a7 95be
00000080: 3573 55be 8bc9 d03d 9159 c6bc 038d 013c
00000090: d716 b93d 88c2 94bd 7073 f5bd c3fd 7d3e
000000a0: ab90 62be e5be e03b d6e8 3bbe 1a93 f73d
000000b0: 8995 30be b9e5 9d3c c3d7 12be 0461 84bc
000000c0: 4860 83bd b6db b2bc 1025 bebd ac74 733c
000000d0: 54cd a0bd 1a47 6f3d 73f6 1abe 3235 3c3d
000000e0: ce6d c53c 2422 c73d b382 8abe b2c9 e8bc
000000f0: d537 82be dd73 01be f81f f03d 4b6f 1d3c
00000100: 68ae d2bd 113e 943e 3557 97be af8e 163d
00000110: 2733 943c f0e2 63be df22 773c de99 b23a
00000120: d0ba e6bc e393 3cbe e7fb d6bd 7da6 21be
00000130: 581c 953d c1a2 893c b83a 6bbe f75d 513e
00000140: f5fa cf3d 93b6 2abe fd9b f73b 192f 91bb
00000150: b752 fabd d452 0d3e 7a7f 083c 97cf f2bb
00000160: ebc5 543e 91b9 34bd bd9b 2a3b 9225 b73e
00000170: 6b12 c03d 8b5e 083e 77aa e2be 4871 f23c
00000180: bdbc 163d 851a 123e 2469 95bc dce5 0f3c
00000190: 8b38 963d 87a1 76be aa0e 36be e2f1 16bf
000001a0: fc23 bebc 8342 d0bc 4b95 e03c 3723 c2bd
000001b0: c073 06be a9ab f7be 3aaa 71be 4795 26bd
000001c0: 6af2 273d 37a9 97bd 92ac 393d d6c9 c13e
000001d0: 2017 36bd b564 2e3d da0c 693e 11b1 503d
000001e0: 9342 00bc db7b dc3d 7538 003c ef9c 8c3d
000001f0: 1b19 013e 1852 b8be 4ec3 a9bc f844 50bd
00000200: 2da1 033e 2cf5 e9bd 3314 483d 1738 01be
00000210: 135d da3d ca11 dbbe 0538 0fbe 7263 afbd
00000220: c5cc e3bc f545 9ebe 1353 1ebe 2f9b f73d
00000230: c39c 2f3e dcde 953e 123c eebd 7384 023e
00000240: de2a 813e 9147 793d fd3e 3b3e 6213 a2be
00000250: 6e26 adbc 1333 51be bf49 453c 1a89 68bd
00000260: 89cc c53d cd82 9a3d fd84 09be da2c 10bc
00000270: 6ad6 dbbd 7752 dc3b 518e 14be 0b12 8f3d
00000280: 59ae 7e3c 88ca 7f3b e2c6 973d 23ac 673d
00000290: acee adbe 0192 70be 61fc 133d e3f5 183f
000002a0: 9f80 c03d 49fb 8b3d 1e1d 613d 1b67 233d
000002b0: a46b 6dbe 72ed f13e cb8e 373d 49b9 e23a
000002c0: 0d8d cfbd 289b 16be c018 d33d 14c8 073d
000002d0: f553 183e 1b40 3dbd e514 8fbc 461f 2d3e
000002e0: bb5d adbc 85e4 b13b 35c1 95bd b859 54be
000002f0: 2c66 0abe 9108 0abe 2965 03be c3a8 eb3c
00000300: 486f e23c 6dae 1b3d 4ef8 78bd 673e 983e
00000310: 6237 38be ff64 afbe 0124 803e bb9d c2bd
00000320: 988c e53c 55e5 e13d c61c 16be 4dcb 0bbf
00000330: beff 72bb b58e 53be 22a9 77bc fe95 eabd
00000340: f583 33be 5a4b 68bd 3d66 3bbd 0a5a 4bbe
00000350: ee45 b13d 1dfc 263d a650 1bbd 4158 0d3d
00000360: 07eb 96bc 3d1d 27be e245 8cbe bf59 f53c
00000370: 719f 3c3e 0eaf d13e 133c 18bf e82b 823d
00000380: 23a7 ddbe 4105 6e3d 365b 893d c329 7f3b
00000390: 29b4 cabd 34a5 753c 0093 ce3d 1c8f 3fbc
000003a0: 71b4 133e 5c86 2dbe 22c3 823e 9fcb 5b3d
000003b0: 54ff 2abe 0331 c7bd 253c 9d3d 4ed1 1dbd
000003c0: f93e ad3c 4979 e13c c5ba 21bc 1507 0ebe
000003d0: 3acf a23c f0b2 0cbd 4e2e 55be 2f80 61be
000003e0: 2148 a03d b35b cdbd 57a8 85be 4474 34be
000003f0: 59ad 42be aeef b43e 6e6b a93d 489e 943e

model.2.bias f4 [256]
0.028564185 -0.11206725 0.054700863 -0.15679753 -0.023881568 0.018250952 0.0468803 0.01021029
-0.023953153 -0.016620904 0.031819426 0.094946325 -0.11479131 -0.06283182 -0.03557533 -0.035806645
-0.06400852 -0.06645508 -0.03379542 0.0074661714 -0.09239446 -0.12928636 -0.1989391 -0.058434293
0.046173178 -0.07717241 -0.102370694 0.0138034485 0.00790865 -0.055818155 -0.025883317 0.013343862
-0.012799785 0.10114566 0.0017361264 -0.011332812 0.005601249 0.05748767 0.009813622 0.045223214
0.00964221 0.06203837 0.10984238 -0.06595233 -0.023550604 -0.069791615 -0.03279471 -0.06957211
-0.04827484 -0.067279115 -0.032232583 -0.017281083 0.14186378 -0.01510968 0.13087311 0.09227195
-0.09215961 -0.047323387 -0.0010802703 -0.07290645 0.032111596 0.11328135 0.034901597 -0.108550325
-0.009287406 0.14890437 -0.03005406 -0.04944755 -0.03917657 -0.005215731 0.08795884 -0.12616426
-0.0020746503 -0.016915694 0.09466308 -0.02990083 0.01341564 -0.025071532 -0.08398048 0.038516946
-0.10141114 0.0012172406 -0.12767994 -0.14882879 -0.04061308 -0.029887788 0.015887551 -0.15728961
-0.06928434 0.09172318 -0.047501292 -0.010587614 0.1188604 -0.024338407 -0.05074631 0.047651384
-0.08817412 0.028839156 0.07953052 0.050214574 0.09102647 -0.009214852 -0.19068079 -0.061583947
-0.016835256 -0.043872926 -0.015497627 -0.13770041 -0.029833052 0.060080685 -0.044862222 0.082039915
0.09258401 -0.003327027 -0.006551682 -0.14273393 -0.031681456 0.10522012 0.024621943 -0.014998135
-0.09701283 -0.052250553 0.025379224 -0.10646614 -0.085743085 0.06778206 0.0019532663 -0.0008656872
-0.057885483 0.063417554 -0.03272193 -0.039745744 -0.0022826619 -0.03366288 0.0050787954 -0.064218074
0.09815813 -0.016708544 -0.010357409 0.121284656 -0.015009759 0.072876796 -0.08336562 -0.020585475
0.09583571 0.04109222 -0.09049553 0.020066401 0.0865476 0.01936752 -0.025533868 0.02640971
-0.08728331 -0.08315407 -0.06517108 -0.036771014 -0.05609868 0.10964412 -0.06248743 0.06607795
-0.08680457 -0.0014191605 -0.053404953 0.113970146 -0.055687804 -0.043226905 0.10139135 -0.08000413
-0.043392066 0.14498931 0.11078135 0.111711875 0.15102956 -0.1390443 -0.057961337 0.0012493785
0.06939979 0.031662233 -0.04241112 0.093605086 -0.0191002 -0.07853168 0.13240921 -0.04674563
-0.06319938 -0.07533126 -0.0099614635 -0.08904675 -0.039556257 -0.023918465 0.11780126 -0.044111237
0.013994025 -0.013703019 -0.08454752 -0.1279649 0.01703745 -0.09673037 0.08922435 0.018731039
0.024823075 0.1194888 0.07164635 0.03986989 -0.06550632 -0.034267396 -0.08892359 -0.02115667
0.089336246 0.09596624 -0.0073640235 -0.13937208 0.13009147 -0.023694193 -0.068335876 -0.06757879
0.009181962 -0.03142925 -0.024577463 0.1028808 -0.11284754 -0.059358474 -0.08607035 -0.021279197
0.04078354 -0.07710015 -0.013278221 -0.072049394 -0.01655772 -0.03778456 0.08457356 -0.034014646
-0.074300036 0.05213828 0.01045665 0.054858115 0.11100901 -0.031129407 0.007977588 0.028873429
-0.09113004 0.05718403 0.080401234 -0.24684216 0.044291414 -0.010502116 -0.10946202 0.020570675
-0.05682348 -0.054958243 -0.019182958 -0.027469892 -0.02084197 -0.08496203 0.07647718 0.0153036965
00000000: 70ff e93c 8483 e5bd 030e 603d 888f 20be
00000010: 47a3 c3bc 0583 953c 8f05 403d 0f49 273c
00000020: 6739 c4bc 9028 88bc 1655 023d 3873 c23d
00000030: b517 ebbd f8ad 80bd 70b7 11bd fda9 12bd
00000040: e616 83bd 9a19 88bd 116d 0abd c9a6 f43b
00000050: 4f39 bdbd a563 04be b1b6 4bbe cc58 6fbd
00000060: 1620 3d3d 920c 9ebd baa7 d1bd dc27 623c
00000070: 4893 013c 94a1 64bd 4009 d4bc 37a0 5a3c
00000080: 30b6 51bc 7525 cf3d bc8e e33a 42ad 39bc
00000090: af8a b73b 3178 6b3d 50c9 203c fa3b 393d
000000a0: 5cfa 1d3c f21b 7e3d 0bf5 e03d 0412 87bd
000000b0: 32ed c0bc e8ee 8ebd bf53 06bd d37b 8ebd
000000c0: d7bb 45bd a2c9 89bd 5006 04bd 0f91 8dbc
000000d0: bd44 113e 978e 77bc 9a03 063e 13f9 bc3d
000000e0: 2dbe bcbd 2bd6 41bd db97 8dba fa4f 95bd
000000f0: 7387 033d 0d00 e83d faf4 0e3d a24f debd
00000100: 342a 18bc 637a 183e ef33 f6bc 8489 4abd
00000110: 9c77 20bd b9e8 aabb c423 b43d 3431 01be
00000120: dbf6 07bb c892 8abc b8de c13d 96f2 f4bc
00000130: 46cd 5b3c d062 cdbc f5fd abbd f2c3 1d3d
00000140: a5b0 cfbd d18b 9f3a 88be 02be 9366 18be
00000150: e759 26bd 3cd7 f4bc 9c26 823c 8710 21be
00000160: f3e4 8dbd 5dd9 bb3d b790 42bd ac77 2dbc
00000170: 156d f33d 5761 c7bc 5ddb 4fbd 192e 433d
00000180: a294 b4bd 1840 ec3c e6e0 a23d ccad 4d3d
00000190: 166c ba3d e4f9 16bc d341 43be 733f 7cbd
000001a0: 17ea 89bc 19b4 33bd c2e9 7dbc 5601 0dbe
000001b0: 7264 f4bc 2a17 763d 73c1 37bd 8b04 a83d
000001c0: af9c bd3d 400a 5abb 7eaf d6bb d828 12be
000001d0: 6ac4 01bd a57d d73d f5b3 c93c bdba 75bc
000001e0: aaae c6bd ad04 56bd 17e8 cf3c eb0a dabd
000001f0: 129a afbd 52d1 8a3d 5f02 003b 49ef 62ba
00000200: 5419 6dbd 10e1 813d 6e07 06bd 6fcc 22bd
00000210: b698 15bb 17e2 09bd 066c a63b c484 83bd
00000220: 2107 c93d 5be0 88bc 1fb2 29bc 1764 f83d
00000230: 7eeb 75bc 6e40 953d 98bb aabd dfa2 a8bc
00000240: 8345 c43d 5150 283d b855 b9bd 4b62 a43c
00000250: de3f b13d a2a8 9e3c 672c d1bc 2d59 d83c
00000260: 98c1 b2bd ae4c aabd 6a78 85bd 349d 16bd
00000270: bbc7 65bd 198d e03d d2f2 7fbd e053 873d
00000280: 98c6 b1bd 2003 baba 27bf 5abd 2e69 e93d
00000290: e518 64bd b20e 31bd 45a6 cf3d 35d9 a3bd
000002a0: e1bb 31bd 1478 143e 55e1 e23d 32c9 e43d
000002b0: 7ea7 1a3e a161 0ebe de68 6dbd 30c2 a33a
000002c0: 7a21 8e3d 42b0 013d 48b7 2dbd 06b4 bf3d
000002d0: 0678 9cbc 38d5 a0bd 4896 073e 5978 3fbd
000002e0: ad6e 81bd 4747 9abd 6835 23bc 245e b6bd
000002f0: be05 22bd a8f0 c3bc c941 f13d fcad 34bd
00000300: 3247 653c a182 60bc 4027 adbd 3b09 03be
00000310: 1f92 8b3c 921a c6bd 42bb b63d d671 993c
00000320: c359 cb3c 8bb6 f43d 52bb 923d 9c4e 233d
00000330: 2d28 86bd f85b 0cbd 921d b6bd c150 adbc
00000340: ecf5 b63d f389 c43d e84d f1bb 8eb7 0ebe
00000350: b336 053e 531a c2bc aef3 8bbd c066 8abd
00000360: f16f 163c f5bb 00bd ad56 c9bc 2bb3 d23d
00000370: 9c1c e7bd df21 73bd a745 b0bd b651 aebc
00000380: a40c 273d afe6 9dbd e58c 59bc a28e 93bd
00000390: 0ea4 87bc fcc3 1abd e734 ad3d f152 0bbd
000003a0: 9e2a 98bd f38e 553d 5e52 2b3c e7b2 603d
000003b0: b158 e33d 1903 ffbc 6eb4 023c f887 ec3c
000003c0: 63a2 babd cd39 6a3d 67a9 a43d 31c4 7cbe
000003d0: ea6a 353d 1111 2cbc a02d e0bd d583 a83c
000003e0: bdbf 68bd e51b 61bd 9425 9dbc 8a08 e1bc
000003f0: c7bc aabc 9300 aebd 11a0 9c3d 5bbc 7a3c

model.4.weight f4 [1, 256]
0.34360644 0.5670897 -0.18495302 0.22735569 -0.20554622 -0.25613 0.1541816 -0.25032726
-0.10281919 0.07271595 -0.07718061 0.2746283 0.44104257 0.020378748 0.030965013 0.6047289
-0.04516997 -0.0100053465 -0.047744144 0.09478466 0.34535676 -1.7030311 0.39478102 1.5846041
-0.71858984 -0.011103541 0.32672805 -0.0042606755 -0.2555277 0.4803402 0.42070037 -0.14086753
-0.009760677 -0.16195595 0.7473302 0.10641302 -0.22849025 -0.38948303 0.23641175 0.78543156
0.019076198 -0.52447045 -0.1544281 -0.00011249069 0.26197734 0.017135212 0.5892184 -0.013397333
-0.05020008 0.012244591 0.121409945 -0.002529276 -0.25129068 0.44985333 -0.2353388 -0.25118387
0.69099265 0.42020786 0.30047077 -0.048485614 -0.22142942 -0.084422804 0.50260794 0.7235526
-0.039397404 -0.21800888 -0.24766488 0.007852227 0.49110353 0.20322928 0.39962685 0.58982664
0.7470119 0.060953002 -0.10658768 1.1768281 -0.00033213515 -0.005582443 -0.00963214 -0.6629312
-0.7291867 0.026626078 0.82322705 0.5317964 -0.033377126 0.019072114 0.22541814 0.49027663
0.016065931 -0.096635625 0.01755335 -0.46850377 0.7214993 0.029686145 0.016700596 0.5429678
-0.026837585 -0.2542156 -0.103638105 -0.16275312 -0.48436013 0.6015479 0.68578666 -0.5624142
-0.05522145 0.04059682 -0.3979618 1.1401898 0.95125663 0.2871879 0.9548957 -0.9972831
0.35445476 0.46830183 -0.92228675 -1.0747339 -0.009819197 -0.093083 -0.24398015 0.3640824
0.001660869 1.0273818 0.49155292 0.9778177 0.41227707 -0.22421505 0.55706334 -0.6683373
-0.038360894 1.0030601 -0.20964654 0.48748887 0.26631677 0.6906495 -0.013230225 0.6156524
-0.22382602 0.63837254 0.2652185 -0.12645769 0.058977135 0.10341344 0.8643736 -0.012626535
-0.20331973 1.3503385 0.42137554 0.08011437 -0.1435869 -0.15001039 0.00583743 -0.09427238
-0.015830792 0.019981625 0.69976383 -0.11855415 -0.040235154 -0.8021124 0.6813369 -0.12687533
-0.02508486 -0.07038773 0.43367678 -0.1335301 0.20419088 1.0474138 -0.22000158 -0.0042020343
-0.0025808795 0.5625313 0.3064077 -0.29028258 -0.36443782 1.1768378 0.43746656 -0.030781727
-0.15009557 0.8264931 0.10990474 -0.29843944 0.43287855 -0.013900261 0.21259463 0.3998605
-0.017060837 0.5799604 -0.48231575 -0.76523536 0.9700499 -0.0365014 -0.21850769 -0.45773548
-0.014729385 -0.617938 -0.009204645 0.6660435 0.6780786 0.10656944 0.35628265 0.21385846
0.4111056 -0.2235859 -0.2468217 -0.11309825 0.9208169 0.7637727 1.1649143 0.40148282
-0.443837 -0.30962366 -0.71906763 0.89459026 -0.111571625 0.8931684 -0.05167771 -0.039052818
1.0247232 -0.017723035 0.85732925 -0.06360321 -0.020467274 0.5188372 -1.0508232 0.556668
0.32286897 0.52032477 -0.3662439 -0.03846193 0.46116 0.4909487 -0.23699148 -0.01828809
0.034511756 0.5274183 0.9668645 -0.6804939 -0.15645258 -0.95528424 -0.4167926 0.3945366
-0.040869627 0.5306691 -0.20854351 0.7142054 0.48087224 -0.7508877 0.6724562 0.65541023
-0.019535612 0.02361085 0.12944537 -1.1706069 -0.58132136 -0.6034905 -0.7250493 -0.08411817
00000000: 2fed af3e ca2c 113f 5364 3dbe eecf 683e
00000010: b57a 52be 7923 83be c8e1 1d3e e52a 80be
00000020: de92 d2bd 1aec 943d de10 9ebd 159c 8c3e
00000030: 55d0 e13e 55f1 a63c 57aa fd3c 83cf 1a3f
00000040: 2504 39bd 77ed 23bc 5d8f 43bd 761e c23d
00000050: 9ad2 b03e ecfc d9bf bd20 ca3e 4fd4 ca3f
00000060: 81f5 37bf a0eb 35bc e648 a73e 239d 8bbb
00000070: 87d4 82be 27ef f53e 0a66 d73e 943f 10be
00000080: 3feb 1fbc c8d7 25be 0851 3f3f 12ef d93d
00000090: 59f9 69be 526a c7be ec15 723e 0b12 493f
000000a0: b045 9c3c b243 06bf 6622 1ebe fbe8 ebb8
000000b0: e521 863e 255f 8c3c 04d7 163f 7d80 5bbc
000000c0: 999e 4dbd 899d 483c c7a5 f83d 36c2 25bb
000000d0: 2ca9 80be 2d53 e63e a8fc 70be 2c9b 80be
000000e0: e5e4 303f 7c25 d73e 4ed7 993e da98 46bd
000000f0: 65be 62be dde5 acbd eaaa 003f be3a 393f
00000100: 2c5f 21bd b83d 5fbe dd9b 7dbe a1a6 003c
00000110: ec71 fb3e 561b 503e e49b cc3e e1fe 163f
00000120: 2c3c 3f3f dba9 793d a44a dabd 4ea2 963f
00000130: 6d22 aeb9 edec b6bb 20d0 1dbc dcb5 29bf
00000140: fbab 3abf ef1e da3c 02bf 523f cf23 083f
00000150: 74b6 08bd 1f3d 9c3c 03d4 663e 8a05 fb3e
00000160: b39c 833c e6e8 c5bd 0bcc 8f3c badf efbe
00000170: 2eb4 383f 5c30 f33c b0cf 883c f0ff 0a3f
00000180: 7fda dbbc 8c28 82be 3740 d4bd c1a8 26be
00000190: 0dfe f7be 0bff 193f b78f 2f3f 61fa 0fbf
000001a0: e32f 62bd da48 263d a6c1 cbbe bdf1 913f
000001b0: 8e85 733f 4b0a 933e 0b74 743f f24d 7fbf
000001c0: 187b b53e 42c5 ef3e fc1a 6cbf e190 89bf
000001d0: b2e0 20bc 4da2 bebd efd5 79be 0269 ba3e
000001e0: 84b1 d93a 3f81 833f d3ac fb3e 4352 7a3f
000001f0: fb15 d33e a198 65be b49b 0e3f 2718 2bbf
00000200: 5020 1dbd 4664 803f 95ad 56be 2498 f93e
00000210: ac5a 883e 68ce 303f 96c3 58bc 659b 1d3f
00000220: a632 65be 626c 233f b8ca 873e 207e 01be
00000230: 0292 713d 6dca d33d 9747 5d3f 87df 4ebc
00000240: 0c33 50be e4d7 ac3f 89be d73e 0113 a43d
00000250: 7208 13be 539c 19be e947 bf3b e111 c1bd
00000260: 94af 81bc 81b0 a33c b923 333f 85cc f2bd
00000270: 9ecd 24bd 3d57 4dbf 186c 2e3f 9beb 01be
00000280: c47e cdbc 7127 90bd e20a de3e 1dbc 08be
00000290: 6a17 513e a811 863f 1848 61be 38b1 89bb
000002a0: f923 29bb 0d02 103f 78e1 9c3e eb9f 94be
000002b0: 9897 babe 9fa2 963f 9efb df3e f629 fcbc
000002c0: a7b2 19be 0d95 533f bc15 e13d 0ecd 98be
000002d0: 42a2 dd3e ecbd 63bc 68b2 593e 84ba cc3e
000002e0: 2bc3 8bbc 4978 143f 17f2 f6be 77e6 43bf
000002f0: 3155 783f 7e82 15bd 7bc0 5fbe 4e5c eabe
00000300: 8553 71bc 2f31 1ebf 14cf 16bc d481 2a3f
00000310: 8f96 2d3f 1441 da3d ae6a b63e b6fd 5a3e
00000320: 6f7c d23e b4f3 64be d4be 7cbe 0ea0 e7bd
00000330: a8ba 6b3f 9c86 433f e91b 953f 288f cd3e
00000340: 9a3e e3be fe86 9ebe d114 38bf de03 653f
00000350: aa7f e4bd afa6 643f 02ac 53bd d9f5 1fbd
00000360: 212a 833f e62f 91bc ee79 5b3f 6642 82bd
00000370: fcaa a7bc 84d2 043f 6081 86bf cb81 0e3f
00000380: 154f a53e 0134 053f 5284 bbbe 428a 1dbd
00000390: 2a1d ec3e a15d fb3e e5ad 72be e8d0 95bc
000003a0: 335c 0d3d e304 073f 6f84 773f d934 2ebf
000003b0: 1b35 20be 828d 74bf d765 d5be b400 ca3e
000003c0: e966 27bd eed9 073f 6e8c 55be 2ad6 363f
000003d0: e334 f63e 2d3a 40bf 1726 2c3f f7c8 273f
000003e0: 2609 a0bc 8b6b c13c 548d 043e 72d6 95bf
000003f0: 7ad1 14bf 5a7e 1abf d59c 39bf 2646 acbd
