src/saved_models/student_drawer.pth (torch, 554364 bytes, 8 tensors)

model.0.weight f4 [256, 19]
000000 0f d3 b3 bc 92 43 1f 3f 17 be 05 bf bb 18 15 bd
       -0.021951227 0.6221248 -0.5224318 -0.036400538
000010 a2 04 28 3f 0f 20 e1 3d 06 18 69 3e f1 39 c5 bf
       0.6563207 0.10992443 0.2276307 -1.5408307
000020 f4 17 4f 3e db cc 09 3f 7a a1 8b 3e c5 a8 a9 3e
       0.20223981 0.5382821 0.27271634 0.33136573
000030 be 0f 29 bf 50 86 fe 3c 7a 34 51 3f 49 2d 91 be
       -0.66039646 0.031069905 0.817207 -0.28354862
000040 26 cb a3 3d 1c 72 88 3f 77 57 db bd 4e 0b b6 3d
       0.07997732 1.0659823 -0.10710042 0.08888875
000050 ab 95 73 bd 09 71 64 be 72 68 09 3e e0 3e 6a 3e
       -0.059468906 -0.22308744 0.13418749 0.22875547
000060 d6 44 54 bf 65 c9 c9 bd 18 a4 85 3f 80 40 0d be
       -0.82917535 -0.09852866 1.0440702 -0.13794136
000070 9f 28 c9 3d 15 5f 79 bf 80 e3 83 3e fc 13 d9 3f
       0.09822201 -0.9741071 0.25759506 1.6959224
000080 b1 5d 35 3e e7 00 eb 3d 29 7a 47 bf ac 23 3d 3e
       0.17711522 0.114747815 -0.77920777 0.18470639
000090 ff 26 b2 3f e2 ce 3d 3e ac a5 84 bd 61 4e 9c bf
       1.3918151 0.18535951 -0.06476912 -1.2211419
0000a0 16 02 19 be 79 a3 d6 be f1 19 3a 3f 7c bc 91 3e
       -0.14942202 -0.41921595 0.72695833 0.28464115
0000b0 34 73 2b 3e 6c 39 53 bf ac 9c 07 3e 95 e4 2b 3f
       0.16743165 -0.82509494 0.1324336 0.67145663
0000c0 d2 80 15 3e aa 67 43 be 2a 8b 4c 3f 69 87 b5 bd
       0.14599922 -0.19082513 0.7989985 -0.08863718
0000d0 30 ac e8 3e b7 c8 94 3e 56 14 56 bc 4b a0 c7 bf
       0.4544387 0.29059383 -0.013066372 -1.5595793
0000e0 de 97 94 3d be f8 af 3d 43 16 8f be 09 2b 18 bf
       0.07255529 0.08592366 -0.27946672 -0.59440666
0000f0 96 dc e4 bd a5 a1 a9 be ee 60 22 3e 5c 67 d3 be
       -0.11174886 -0.33131137 0.15857288 -0.41289794
000100 ce ad 2c 40 97 c6 43 bd 4c bf 7e 3c b2 1c 15 3c
       2.6981082 -0.047796812 0.015548538 0.00910108
000110 f5 e5 6b bf 59 88 4b 3e 73 4c 53 3e c4 43 c9 bd
       -0.9214776 0.19876231 0.20634632 -0.098273784
000120 af a4 bd 3e 85 96 a8 bf 4f c8 be bd 53 cb 37 be
       0.37039706 -1.3170935 -0.093155496 -0.17948656
000130 7e 07 1e be 32 4e be 3d 55 3d a8 3d c2 33 43 3e
       -0.15432546 0.09292258 0.08214823 0.19062713
000140 99 a3 f2 bd 1e 26 20 be e5 49 f9 3d ae e9 bd bd
       -0.1184761 -0.1563954 0.121722974 -0.092730865
000150 5f 94 0e 3e 00 fd 5e bd d1 62 06 3e d3 86 36 be
       0.13923787 -0.0544405 0.13123633 -0.17824869
000160 3b 1b ed bd 83 3e 8f 3d 29 a8 46 3d d5 94 6f bd
       -0.115774594 0.06994345 0.048500214 -0.058491547
000170 97 07 0c 3e b2 b3 1f 3e e5 5b 2a be 1b 14 52 be
       0.1367477 0.15595892 -0.16636617 -0.20515482
000180 10 37 b7 3e 33 28 fa bc 88 91 38 bd 65 ab 60 bf
       0.35784197 -0.030536747 -0.045060664 -0.8776153
000190 65 93 c2 be ea 7a 72 3c 57 e7 15 3e c1 86 2a be
       -0.38003078 0.014799813 0.1463903 -0.16652967
0001a0 ce 76 26 bf 06 a4 bd be 21 73 21 be 55 a1 75 bf
       -0.6502503 -0.37039202 -0.15766574 -0.959493
0001b0 37 9b 4d be f5 3c 4d bf bb 01 e5 bc 51 6e df 3d
       -0.20078741 -0.8017114 -0.027954927 0.10909713
0001c0 09 24 03 3f 98 1b 5b be 33 74 22 be 6e c9 8d bd
       0.5122686 -0.21397245 -0.15864639 -0.06923185
0001d0 08 dc e4 3c 0a ca 56 be 93 2f d1 bd 1c 85 13 be
       0.02793695 -0.2097551 -0.10214152 -0.14406246
0001e0 e6 ad cc bb 01 45 aa bd 8e 3b 82 bc b7 8f 22 be
       -0.0062463162 -0.08313943 -0.015897539 -0.15875135
0001f0 51 22 28 be 2e fc 10 be 90 10 9c bd 52 6b 39 be
       -0.1641934 -0.14158699 -0.076203465 -0.18107346
000200 73 9a 41 3e 96 a8 55 bd 7e 12 42 3e 11 65 92 3d
       0.18906574 -0.05216273 0.18952367 0.07148183
000210 56 ee 46 be ec d7 f6 3d 48 f4 f7 bd 24 a0 ac bd
       -0.19426855 0.120529026 -0.1210714 -0.08428982
000220 c5 d3 bb be 53 56 84 be 67 77 11 be 91 3d 23 3d
       -0.36685005 -0.2584711 -0.14205705 0.039853636
000230 ea 51 e5 be aa ca 40 be 55 4a 0f 3e 0f d7 9a be
       -0.44789058 -0.1882731 0.13993199 -0.30242202
000240 47 aa c7 3d d2 ca fd bf b9 8e f2 3d 41 88 1e 3e
       0.09749275 -1.9827521 0.118436284 0.15481664
000250 9c 56 8d 3d 40 e2 8d be b7 f2 ad bf 83 17 ca bd
       0.06901285 -0.27711678 -1.3589696 -0.09867766
000260 73 79 6e bd 03 87 bf bd f6 65 fc 3d 32 97 7b be
       -0.05822129 -0.09351923 0.12324135 -0.24569395
000270 ad c1 8a 3d 8a 73 06 3d 0c a4 41 bc c1 e2 08 3f
       0.06775222 0.03282503 -0.011818897 0.53471
000280 4e 88 55 3e c7 a5 91 bb 43 51 08 3d 5c e0 d9 be
       0.20852777 -0.004444811 0.033280622 -0.42553985
000290 f1 9d b8 be ee f8 0c bd 7c cc 23 be 65 c6 13 3e
       -0.36058 -0.034417085 -0.15995973 0.1443115
0002a0 da 58 e6 bc 65 75 8e 3e 59 ce ed bd 60 42 13 3d
       -0.02811854 0.2782394 -0.11611623 0.035951972
0002b0 aa 3f a2 3e 8d b6 2f bf 8f 09 cc be 44 ca ac be
       0.31689197 -0.68637925 -0.39851043 -0.33748066
0002c0 db 27 b4 bd f8 7e a7 3c c5 40 bc 3f 2f 2a 5d be
       -0.08796664 0.020446286 1.4707266 -0.21598123
0002d0 f8 92 52 be 6b e6 86 3e 17 0e bc bd 00 48 a0 bd
       -0.20563877 0.2634767 -0.09182375 -0.07826233
0002e0 28 3b f5 3d e5 ad 0d be da 0b 7c 3e af 81 22 be
       0.11974174 -0.13835867 0.24613896 -0.15869783
0002f0 53 a2 28 bf a0 0e c9 3c 88 e3 68 3d 9a a3 93 3d
       -0.6587269 0.024543107 0.056857616 0.07208939
000300 5a a7 dc 3e 44 71 e7 3e a7 ee 1b bb 1d 24 6a bf
       0.4309643 0.45203602 -0.002379337 -0.91461354
000310 f2 48 e8 bd f5 e3 c0 bf 4c e9 61 3d 11 4e ad 3d
       -0.11342038 -1.5069567 0.05515413 0.084621556
000320 23 b1 82 bf ab 89 7d be f3 28 68 c0 a4 07 b7 3d
       -1.0210308 -0.24759547 -3.6274993 0.08937004
000330 5f 2c 12 3c 9e e5 81 bf a4 94 74 be 0c fd ee 3e
       0.008921712 -1.0148199 -0.23884827 0.46677434
000340 bb 26 99 bd 08 ab 9e 3d 8a ca 15 3e eb ec d8 3d
       -0.074780904 0.07747465 0.14628044 0.105920635
000350 5b a8 4f be ea 45 0d be 59 4c 14 bd 5c 40 63 3e
       -0.20279066 -0.13796201 -0.036205623 0.2219252
000360 c8 ee 07 3d f5 59 73 bd a2 61 c2 3d 66 f4 b2 bd
       0.033186704 -0.05941196 0.09491278 -0.087380216
000370 ed 0d 18 be 63 77 2b 3e 7e a3 d5 bd 3f 60 3c bd
       -0.14849062 0.16744761 -0.10431574 -0.045990225
000380 7c b3 69 be e8 39 1d 3e 1d fc 31 3e cc 3b ab 3d
       -0.22822374 0.1535412 0.1738133 0.08361015
000390 c0 26 51 be 1c e3 f9 be 30 26 30 bf 08 45 6c 3e
       -0.20424938 -0.48806083 -0.6880827 0.23073208
0003a0 35 a9 bd bf e6 a4 82 3e 6b 9a a2 3e d3 f8 f1 3e
       -1.4817263 0.25516433 0.31758437 0.4726015
0003b0 a1 3b 13 bb 6b 17 e2 bf f1 f8 bb be b2 3a 11 3e
       -0.0022465962 -1.7663397 -0.36713365 0.14182547
0003c0 07 2b b4 3f 96 ad e6 bd 3f ab d1 bf 50 d1 69 be
       1.4075631 -0.11263578 -1.6380385 -0.22833753
0003d0 e9 48 e3 3d 46 7a 55 3f 64 80 19 be f2 0e 25 bd
       0.11097891 0.833897 -0.14990383 -0.040297456
0003e0 3a 30 88 be 34 73 29 3c 43 d7 6e be 14 cf 41 be
       -0.26599294 0.010342408 -0.23324303 -0.1892665
0003f0 d7 f4 a2 be d4 d7 23 be b7 a9 4c bf fa a4 5f be
       -0.31827423 -0.160003 -0.79946464 -0.21840277

model.0.bias f4 [256]
000000 b8 a1 80 bd 59 c8 4f 3d 4f bd c0 3d 09 c3 12 bd
       -0.062808454 0.050728176 0.09411108 -0.03583053
000010 98 1b 53 be 55 20 4a 3e 2a 7c b2 3d 28 37 a8 3d
       -0.20615995 0.19738896 0.08715089 0.08213645
000020 fc 6a af 3d ce 72 04 3b c3 83 bb bd eb b9 5e be
       0.085653275 0.002021003 -0.09155991 -0.2175061
000030 46 d4 bc 3d 2a 0c 13 3e e0 19 92 bc 76 93 9d bb
       0.092201754 0.14360109 -0.017834604 -0.0048088385
000040 70 a0 3a 3e f0 5e a1 bd 45 32 39 3e 60 a2 3e be
       0.18225265 -0.07879436 0.18085583 -0.18616629
000050 a7 c7 59 be 8d 0d 09 be 8e e4 20 bd 0b 4a 36 3d
       -0.21267568 -0.13384075 -0.039280467 0.044504207
000060 ad d3 c3 3d 90 b1 14 be 24 4d 07 bd d5 bc bf 3d
       0.09561858 -0.1452086 -0.03303255 0.09362189
000070 8e c0 ba bd d2 ef 3f bd a8 92 4f 3e 46 cb 92 bd
       -0.09118758 -0.04685957 0.20270789 -0.071676776
000080 56 df 6b 3c 3e b9 02 3e c1 b0 f9 3c a9 e2 06 bd
       0.014396509 0.12765977 0.03047979 -0.032931004
000090 7e bf 14 be 58 45 1b be 19 d8 2a bd e6 7d 04 3d
       -0.14526173 -0.15163171 -0.041709993 0.03234663
0000a0 ff 97 47 3e 26 5e 9a 3d df 3e 29 3e 81 dd 09 be
       0.19491576 0.07537489 0.1652789 -0.13463403
0000b0 fb ce 21 3d e6 20 36 be fd 00 90 3d 89 fd 13 3e
       0.039504033 -0.17785987 0.070314385 0.14452185
0000c0 80 eb 19 bd 19 c8 e8 3b 7b ea ac bd 0a be 40 be
       -0.037578106 0.0071039316 -0.08443161 -0.18822494
0000d0 3b fb ff bd 8c 83 49 be 2e 3c 0a 3e de 01 c4 bd
       -0.1249909 -0.19679087 0.13499519 -0.09570669
0000e0 f4 99 0c bd ce 83 52 be 04 fb b4 3d 95 b7 68 3e
       -0.03432651 -0.20558092 0.0883694 0.22726281
0000f0 be 57 84 3d 7b 42 38 be 55 7d 1c bd bc 79 46 3e
       0.06462048 -0.1799411 -0.038205463 0.19382375
000100 ea 92 85 3d 59 d1 2d be 68 8f 45 3d 22 e9 40 be
       0.06522162 -0.16974391 0.048232466 -0.18838933
000110 35 c3 61 be de ff 8b bc a8 2a 3b be 51 6b e6 bd
       -0.22047122 -0.01708978 -0.18277991 -0.11250938
000120 b0 84 a7 bd 36 28 15 3e ec 34 64 be 20 97 17 be
       -0.08179605 0.1456612 -0.22285813 -0.14803743
000130 c8 3d b8 bd 8d 0f f0 3d b8 fc 27 3e 60 c3 ed 3d
       -0.08996159 0.11721716 0.16404998 0.116095304
000140 3f 11 24 bc 49 c8 4e bd cb e4 1f 3e 6e 17 4f bc
       -0.010013877 -0.050483976 0.15614621 -0.012639863
000150 64 fd c1 3d 9b 32 79 bd 43 8b eb 3d 50 15 0e 3e
       0.094721586 -0.060839277 0.115011714 0.13875318
000160 e3 36 c7 bc db ad 44 3e 1f 29 2f be b1 b1 da 3d
       -0.024318164 0.19206946 -0.1710553 0.10678423
000170 02 e7 04 3e 43 a6 34 bd 8b 77 dd bc 88 d4 d4 bd
       0.12978747 -0.044103872 -0.027034542 -0.103920996
000180 02 84 7b 3c 02 25 84 3d 8c 75 83 bd 55 94 19 3e
       0.015351297 0.06452371 -0.06418905 0.1499799
000190 74 ae 99 3c 20 c1 03 be c7 6a 66 be 76 3c 02 3e
       0.018759944 -0.1286664 -0.2250167 0.12718377
0001a0 79 e6 ce bc eb 19 b9 bd 73 8a 2c be 50 6f 6e 3e
       -0.025256382 -0.090381466 -0.16849689 0.2328465
0001b0 85 6a 3c 3d 6a 17 2e be e0 e4 4a be 56 06 2c 3e
       0.046000022 -0.1700112 -0.19813871 0.16799292
0001c0 b0 82 80 bd d1 07 0a bd 7b 3d 43 be 6c 80 10 3e
       -0.06274927 -0.03369886 -0.19066422 0.14111489
0001d0 44 78 1f be 22 e7 a9 3d b3 1f 5f be 5c 75 51 be
       -0.15573221 0.08296038 -0.21789436 -0.20454925
0001e0 c3 5d 61 be d9 bc 67 3e a6 13 49 3e 71 74 48 be
       -0.22008424 0.22630633 0.19636402 -0.19575669
0001f0 8e 6b 9b 3c a7 ca 0e be 3c 53 5a be 29 73 fa 3d
       0.018972185 -0.13944493 -0.21320814 0.12228996
000200 bc 18 24 3e 8e 8c d7 3b 38 d2 8e 3d 07 68 34 3e
       0.1602506 0.0065780347 0.0697369 0.17617808
000210 f2 5f 4a be 3e 03 fe 3d e3 e2 94 bd de f3 e0 bb
       -0.19763163 0.12402962 -0.07269838 -0.0068650087
000220 b7 c7 22 3e 2a 6d 16 be de 7f 17 3e 2f fc 1f bd
       0.15896498 -0.1469008 0.14794871 -0.03905886
000230 70 4d 79 3e b5 86 cd 3d 44 04 14 3e 34 23 1c 3c
       0.24345946 0.10035459 0.14454752 0.009529877
000240 11 f1 17 be a9 68 67 be 83 76 1e 3e 9b 56 01 be
       -0.14838053 -0.22598518 0.15474896 -0.12630694
000250 13 4d 07 3e 0b 30 36 3e 99 ed 11 bd 16 1f 14 3e
       0.13212995 0.17791764 -0.03562698 0.14464983
000260 f7 ae 37 3e 4c c8 9e bd d4 cc 3b 3d 94 f9 41 bd
       0.17937838 -0.07753047 0.045849636 -0.047357157
000270 6f 99 42 3e c8 2c 79 3d 53 98 22 be c2 8e ed 3d
       0.19003843 0.060833722 -0.1587842 0.115994945
000280 09 08 ca 3d 87 13 d8 3d 61 72 9e 3d 56 c0 28 3c
       0.09864814 0.105505995 0.0773666 0.010299763
000290 6e 7f 2d bd f4 81 60 3d 24 97 22 be 51 5d 73 3e
       -0.042357855 0.054811433 -0.15877968 0.23766066
0002a0 8d fe 1d 3e 70 a8 12 be 78 20 49 be f2 96 fd 3d
       0.15429135 -0.14322066 -0.19641292 0.12382306
0002b0 b5 36 50 be 3a 3c 96 3a b6 d2 64 be 7b 35 f0 bd
       -0.20333369 0.0011462041 -0.22346005 -0.117289506
0002c0 dd ed c6 bd f9 60 12 3e d2 56 5f bd ea 15 2c 3e
       -0.097133376 0.14294805 -0.054526158 0.16805235
0002d0 8a 96 c5 bd 78 c3 3b 3e 91 1f 16 3e fe c8 b9 3d
       -0.09647854 0.18336284 0.14660479 0.09071539
0002e0 a3 35 f5 3d d7 d0 8a bd 93 01 a7 bd 9d f3 23 3e
       0.11973121 -0.06778114 -0.08154597 0.160109
0002f0 2f b1 67 3b f9 e7 ac bd f5 ca 38 be 3f 6b 38 be
       0.0035353412 -0.08442683 -0.18046172 -0.18009661
000300 43 69 0a be 55 53 aa 3d f4 13 c2 bd 69 98 7a bd
       -0.13516717 0.083166756 -0.09476462 -0.061180506
000310 9d a6 db bd a5 6a 74 3d 50 82 41 be 3a 9b 87 3d
       -0.10725138 0.059672017 -0.18897367 0.06621404
000320 98 2c e4 bc d7 f1 44 3d a8 0e 55 3d dd cf b6 bd
       -0.027853295 0.0480822 0.05201593 -0.089263655
000330 a5 e2 10 3e a8 a3 b4 3d 58 07 d4 bb a5 cc 72 be
       0.14148958 0.088202775 -0.006470602 -0.23710878
000340 14 57 5d 3d bd a8 e1 3c 6d ad 23 3d 14 41 ba bc
       0.054038122 0.027546281 0.039960314 -0.02273611
000350 54 8a 48 3e 7b 2c 8b 3b 83 b7 09 3d f9 17 23 bd
       0.19584018 0.004247246 0.033622276 -0.039817784
000360 5a 1e b8 3d 40 2b 12 be 6a d0 0b be 4c c4 ba 39
       0.08990164 -0.14274311 -0.13653722 0.00035622937
000370 94 86 c2 3c c9 d4 08 be 47 7f 4f be 5d b9 ad 3d
       0.023745812 -0.13362421 -0.20263396 0.08482621
000380 df 07 8b bd a6 36 1b be de 77 16 3d 1f 32 ca bd
       -0.06788611 -0.15157565 0.036735408 -0.09872841
000390 77 6a 2c 3e 28 60 d6 3d a5 ca 9e bd a0 0d 4e 3d
       0.16837488 0.10467559 -0.07753495 0.050305963
0003a0 09 e7 03 be cd 9e d6 bd 17 d6 0a 3d 41 53 88 bd
       -0.12881102 -0.104795076 0.03389558 -0.066565044
0003b0 ab c3 bd bd dc 1e 8b 3d bd c8 1e bd 43 1f 0b bd
       -0.09265836 0.06792995 -0.038765658 -0.03396536
0003c0 04 7a 57 3e 57 f3 e7 3d 0f 43 14 bd ae 4f 10 3e
       0.21042639 0.1132571 -0.036196765 0.14092895
0003d0 71 da d8 bd 49 34 be bd bf 64 bb bc 00 b2 d2 3d
       -0.105885394 -0.09287316 -0.022875188 0.10287857
0003e0 1d a7 62 3e 05 6b 8b bd 5b ba c4 3b c1 6e 50 bd
       0.22134061 -0.06807522 0.0060036606 -0.050886873
0003f0 14 95 fd bb 87 18 98 3d be d5 1f be 22 f2 c3 3c
       -0.0077387188 0.07426553 -0.1560888 0.023919169

model.2.weight f4 [256, 256]
000000 c8 d6 9b bc 46 7e 89 bd 5d b6 88 bd 40 5b 4e bc
       -0.019023314 -0.06713538 -0.06675408 -0.012594998
000010 76 39 37 3d 56 6a 41 bd 04 c7 a6 3c 49 c0 f5 3c
       0.044732533 -0.04722055 0.02035857 0.029998915
000020 cd 47 53 bd dc e2 db 3c 70 43 41 3c c4 10 69 bd
       -0.051582146 0.026841573 0.0117958635 -0.056900755
000030 7a b8 98 bb 39 80 84 bd 4c d2 5f 3d 08 f7 ef 3c
       -0.004660663 -0.06469769 0.054643914 0.029292598
000040 10 16 93 3c ac 89 44 3d be 7f 2a 3d ee 24 7e 3d
       0.017954856 0.047982857 0.04162573 0.062046938
000050 f4 3d d3 3c 94 d3 38 bd 34 c8 6d 3d 44 d4 39 3c
       0.025786377 -0.04512365 0.058052257 0.011342112
000060 83 09 fb bc 68 8c be bc 65 b6 5b 3d 75 2b 00 3c
       -0.030644184 -0.02326031 0.05364074 0.007822861
000070 b7 52 50 3d f6 b8 96 ba b2 c1 53 3d 3a 9b 23 bd
       0.050860133 -0.0011499214 0.051698394 -0.039942957
000080 7a 7a 11 3c 59 a1 11 3c e3 fe dc bb 07 50 4b 3d
       0.008879298 0.008888566 -0.006744252 0.049636867
000090 a0 a1 4d 3c 40 e2 5d 3b a0 18 16 3d 14 5e 33 bc
       0.012550741 0.003385678 0.036644578 -0.010947723
0000a0 f0 71 24 bc 70 b3 6b bd 84 89 d2 bb 72 43 10 bd
       -0.01003693 -0.05754417 -0.0064250845 -0.03522057
0000b0 2c 38 14 3d 8b 19 46 3d ea ae 83 bd 43 ee 2c bd
       0.036186382 0.048364203 -0.064298466 -0.04221941
0000c0 82 d1 5d 3d 74 88 da bc 8e ab 63 3d 6a 0c 7c 3d
       0.05415488 -0.026676394 0.05558353 0.061535276
0000d0 34 67 80 bc da 3a 4f bd 0b aa ce 3c c4 bd e8 3c
       -0.015674211 -0.050593235 0.025227567 0.0284108
0000e0 1a 78 5e 3d 88 e5 13 3c 36 33 0b 3d 45 2a 74 bd
       0.054313757 0.0090268925 0.033984385 -0.059610624
0000f0 b2 2f 2a 3b 4e 5b 0e 3c 46 c7 07 3d 2d af 21 bd
       0.002596837 0.008688761 0.033149026 -0.0394737
000100 f8 03 5d bc c6 97 18 bd ef d3 44 bd 0c 24 d5 3c
       -0.013489716 -0.037254117 -0.048053678 0.026018165
000110 11 d5 64 3b af 1b 9a 3c 80 8a ba ba 40 3e c9 ba
       0.0034917037 0.018812029 -0.001423195 -0.0015353635
000120 e7 f4 09 bc 54 38 e3 3c 14 23 31 bd f0 bc 5c 3c
       -0.008420206 0.02773682 -0.043246344 0.013472781
000130 9a 5f 0c 3d b0 9b f7 3c 88 90 13 bd d7 95 2d 3d
       0.03427086 0.030225605 -0.036026508 0.042379227
000140 74 47 43 bd fc 7c 05 3d 7c b6 38 3d 33 5c 83 bb
       -0.047675565 0.032589898 0.045095906 -0.0040087937
000150 f8 ab 56 3c a0 83 72 bd e3 0d 02 bd 93 73 fa bc
       0.013102524 -0.05920756 -0.031751525 -0.030572688
000160 44 58 6e bd 76 ab 9d bc 5a 17 1a 3d 85 13 43 bc
       -0.058189645 -0.019246798 0.037619926 -0.011906509
000170 aa 50 64 3d be 1b 7f bd f6 59 a8 3c aa 5d 5d 3d
       0.05574099 -0.062282316 0.02055071 0.054044403
000180 38 2a 60 3d c0 9c c6 bc a1 cb 7f bd b8 73 ed bc
       0.054727763 -0.024244666 -0.062450055 -0.028985843
000190 90 16 25 3d 70 70 b3 3b 0c a9 85 3d 2f 95 53 bd
       0.04030472 0.00547605 0.06526384 -0.051655944
0001a0 78 4d 20 bd 56 77 02 3d e0 8d af 3c b1 fb 3e bd
       -0.03913638 0.03185209 0.021429956 -0.04662675
0001b0 bd 79 55 3d 1e d7 97 bc ec c2 54 bd 83 fb 39 3c
       0.05211805 -0.018535193 -0.051943704 0.011351469
0001c0 fa 12 28 bd 58 a6 f3 bc dc 02 0f bd cc d0 33 3c
       -0.041033722 -0.029742405 -0.034914836 0.010975074
0001d0 68 de ef 3c f1 7d 13 3d aa dc 10 bd e8 51 6f bc
       0.029280856 0.03600878 -0.03536669 -0.01460693
0001e0 c6 f4 6e 3d 21 2a 1c bd 66 6e ea bc 70 e6 44 bc
       0.058338903 -0.038126115 -0.028617095 -0.012017831
0001f0 ea 58 7b bd 5c 37 3d bd 60 11 64 3d 09 2c 88 3c
       -0.061364092 -0.046195373 0.055680633 0.01662256
000200 44 b8 b9 3b dd ab 99 3c 2f 60 0b 3d 16 49 13 3d
       0.005667718 0.018758709 0.034027275 0.035958372
000210 48 5b 37 3d 78 71 9d 3c 72 fd 40 3d 4a a9 0e 3d
       0.044764787 0.019219145 0.047116704 0.034829415
000220 a1 f2 86 bc 01 04 34 3c 82 ae 1e bd 8a a1 40 bd
       -0.016473116 0.010987283 -0.038740642 -0.047029056
000230 9f 1b 5a 3d 50 a2 3e bd d6 ba 38 bd 4e f9 87 bd
       0.053248998 -0.046541512 -0.045100056 -0.06639348
000240 43 b8 5c bd 70 c5 68 3c 6c 69 c4 3c 58 62 55 bd
       -0.053886663 0.014207229 0.02397605 -0.05209574
000250 40 f9 a2 3b da aa 55 bd 60 e0 41 3c 07 43 00 3d
       0.0049735606 -0.05216489 0.01183328 0.031313922
000260 51 b8 f5 bc 73 f8 08 bd 85 1c 0e 3d e4 a2 3d bd
       -0.029995115 -0.033440065 0.034695167 -0.046297923
000270 0d ff 99 bc cc d1 6d bd 5c 63 33 3d 60 4c a3 3c
       -0.018798376 -0.058061406 0.04379593 0.01993388
000280 b5 b6 fc bc 42 85 1d 3d 0c b6 59 3d 13 9f 9f 3c
       -0.03084884 0.038457163 0.05315213 0.019485032
000290 5c c8 34 bd 70 49 5f bc 16 ed 4d 3d b8 64 21 3d
       -0.04413639 -0.013628349 0.05027493 0.039402694
0002a0 13 9d d9 bc 7e b1 10 3d 38 77 27 bd 05 07 30 3c
       -0.026564157 0.03532552 -0.04088518 0.010743861
0002b0 5e aa 61 3d 04 7e ae 3b ca 6b 4b bd fc 8f 99 3c
       0.055094115 0.005325081 -0.049663343 0.018745415
0002c0 50 ac 0e 3d 21 5e 19 3d d3 fe 40 bd c0 3a 8d bc
       0.0348323 0.037443284 -0.04711802 -0.017239928
0002d0 50 e7 17 bc 6a da 8a bc 07 f1 a2 bc cf d9 e9 bc
       -0.009271458 -0.016949851 -0.019890321 -0.028546242
0002e0 f5 f6 7d 3c a0 4d f3 3c a9 cc 94 bc 6f 2f 35 3d
       0.015500774 0.0297001 -0.018163996 0.04423469
0002f0 ca 6c d0 bb 60 a0 79 3c 44 23 80 3c 70 54 ae bc
       -0.006360625 0.01523599 0.015641816 -0.021280497
000300 b4 3f 3e 3b 71 c5 a9 ba f4 59 90 3c fe 88 09 bd
       0.002902967 -0.0012952519 0.017621018 -0.03357791
000310 c4 07 eb bc f0 1a 77 bd e0 ba de bc 88 be 63 3c
       -0.028690226 -0.060328424 -0.027188718 0.013900407
000320 03 38 36 3d 1f 97 8a bd d3 89 e9 bc aa 0f 21 3d
       0.04448701 -0.06767105 -0.028508103 0.03932158
000330 9d 14 23 bd c6 d8 2c 3d ec 6c 65 bb 54 b1 70 bd
       -0.03981458 0.04219892 -0.003500755 -0.058762863
000340 7f ed 98 3b 11 1c 32 bd 8e 94 8c 3c f0 60 65 bd
       0.0046669836 -0.043483797 0.01716068 -0.05600065
000350 a4 e5 57 3d c0 e6 05 bd 11 0f 0b 3d ba 11 21 bd
       0.052709237 -0.032690763 0.033949915 -0.039323546
000360 b3 0d 66 bd 08 70 c9 3c 36 e8 19 3d c3 35 d7 bb
       -0.05616541 0.024589553 0.03757497 -0.006567688
000370 48 04 71 bd 54 71 8c bc d8 66 31 bd df 82 3f 3c
       -0.058841974 -0.017143883 -0.04331097 0.011688917
000380 d4 4f 86 3b 6a e6 31 3d 54 db 66 3d 0c b7 fc bc
       0.0040988717 0.04343263 0.05636151 -0.030849002
000390 9c 9f 31 3d d2 32 19 3d d8 67 1d 3c 0f d5 89 bd
       0.043365106 0.03740198 0.009607278 -0.06730091
0003a0 3c 8e 31 bd 30 18 df 3c 3c 91 25 3d 79 b5 df 3c
       -0.043348536 0.027233213 0.04042171 0.027308213
0003b0 50 07 c1 3b 96 af 1b bd ee f2 60 bd b2 f7 2a bd
       0.0058907643 -0.03800925 -0.054919176 -0.041740127
0003c0 7f 81 b5 bb f8 35 11 3b dd 67 2b 3d 6e a3 38 bd
       -0.005539119 0.0022157412 0.0418471 -0.045077734
0003d0 14 78 da 3c 72 38 40 3d e3 f1 7f bd a6 10 21 bd
       0.026668586 0.04692883 -0.06248654 -0.039322518
0003e0 ba b4 bf bc ac af c3 3b fe a9 4c 3d a7 43 dc 3b
       -0.023401607 0.0059718695 0.049966805 0.006721932
0003f0 8d 88 14 3d 48 78 36 3d 12 f9 48 3d a6 00 81 bd
       0.036263037 0.044548303 0.049065657 -0.06298952

model.2.bias f4 [256]
000000 aa d1 81 bd 85 d5 83 bd 2a f9 ef bd c0 d2 36 bd
       -0.06338818 -0.0643721 -0.11717446 -0.04463458
000010 8e c8 b9 3b fd b3 34 3d ba 4d 5b bd c2 4f ad bd
       0.00566966 0.044116963 -0.053540923 -0.08462478
000020 a3 5f 3a 3d 6a e7 b3 bd 8a b4 1e bd 2f 38 89 3d
       0.045501363 -0.08784373 -0.038746394 0.06700169
000030 f3 bb e3 3c fc a6 d9 3d 31 a3 ba bb a1 36 37 bd
       0.027799582 0.10627553 -0.0056957235 -0.044729833
000040 f0 0a 39 bd b1 5f 13 bd 9d 5f 53 bd ca bd 88 bd
       -0.045176446 -0.03597993 -0.051604856 -0.066768244
000050 82 e5 6f bd 7b 18 5b 3d b5 17 94 bc d4 78 56 bd
       -0.058568485 0.053490143 -0.01807771 -0.052361324
000060 56 cf b7 bd 99 08 09 3c 2c 34 af bc ac 61 73 bd
       -0.08975093 0.008363866 -0.021387182 -0.05941932
000070 91 d5 aa 3d 5e 60 63 bd 4a 40 15 3e 19 23 0e bc
       0.08341516 -0.055511825 0.14575306 -0.00867536
000080 10 8b a4 bd 2a ef 2c 3d 06 d9 16 3e 62 7c 97 3d
       -0.080343366 0.042220272 0.14731225 0.07396771
000090 18 16 e2 3b 65 42 44 bc 76 f0 b7 3d 71 c5 33 bc
       0.0068996064 -0.01197872 0.08981411 -0.010972367
0000a0 d3 bb 79 3d 7d dc 01 3e a6 d6 f0 bb 6e 5c 73 bd
       0.06097014 0.12681766 -0.007349807 -0.05941432
0000b0 46 56 4a 3d 17 8a 7a bc 00 4d c4 3d 3b 93 fe ba
       0.049398683 -0.015291712 0.09584999 -0.001942254
0000c0 a5 cc 2d ba 46 51 91 bd 5d 9d aa bd cb 91 91 bd
       -0.00066299207 -0.0709558 -0.08330796 -0.07107886
0000d0 28 19 07 3e f4 0b 0a bd 7c 30 28 bd dd 35 0f bd
       0.1319319 -0.033702806 -0.041061863 -0.034963477
0000e0 13 57 bf 3d 09 7b dc bd 59 a0 97 3d 07 dc 92 3c
       0.0934278 -0.107656546 0.07403631 0.017927183
0000f0 26 8f cd 3d 06 8c 32 bb a1 e3 4e 3d b3 50 e8 3d
       0.10037069 -0.0027244105 0.050510053 0.11343517
000100 cb 10 9a 3d da da e6 3d be e9 bb 3d 14 7b 0b 3e
       0.07522734 0.112722114 0.09175442 0.1362117
000110 8a 4a 93 bc 91 2a ff 3b c0 15 3f bd a3 f8 d2 bc
       -0.017979879 0.0077870567 -0.0466516 -0.025753325
000120 d0 85 ff 3c ba 12 e9 3d 7c ee 15 bd 7a 80 b8 3d
       0.031191736 0.11380525 -0.03660439 0.0900888
000130 8c 70 61 3d 43 06 20 3d d3 2e 1b 3e 7f 74 6f 3d
       0.055038974 0.03906847 0.15154581 0.05846071
000140 62 0a e7 bd 9c 15 c9 bc da df e8 bb 58 d6 95 bc
       -0.11281277 -0.024546437 -0.0071067633 -0.018290684
000150 df b7 0a 3e 30 d2 05 3e b6 13 81 3d 77 80 c0 3c
       0.13546704 0.13068461 0.06302588 0.023498757
000160 56 e9 05 3d 02 85 14 3e 0b 91 45 3e c5 4d bf bc
       0.03269323 0.14503863 0.19293611 -0.023352513
000170 e8 aa a4 bc 4c 67 12 be 9d b3 1b 3e 6a 55 22 bd
       -0.020101026 -0.14297217 0.15205236 -0.03963224
000180 db f5 69 bb 71 aa a3 bc 6f 77 4b bd 98 80 f0 bb
       -0.003569952 -0.019978734 -0.049674448 -0.0073395483
000190 55 d3 93 bd 65 ae 0f 3e 10 0b 7c bd de e1 ad 3d
       -0.07218043 0.1403137 -0.061533988 0.08490346
0001a0 6f 8c dd bc 4c 56 8f bd ca e2 20 bc b6 37 13 3e
       -0.027044503 -0.06998882 -0.009819696 0.14376721
0001b0 01 43 d4 3d 8a 54 95 3c af af 7d bd 33 e4 fc bb
       0.103643425 0.018228788 -0.061935123 -0.007717633
0001c0 10 1a 83 3d bf 79 94 bc 30 36 b9 bd c9 03 91 3c
       0.064014554 -0.01812446 -0.090435386 0.017702
0001d0 9b 37 f0 bc 4e 58 3a bd 4f e6 b7 3d fc 87 90 3b
       -0.02932339 -0.04549437 0.08979475 0.004410742
0001e0 37 3a 80 bc de c6 3e 3c 84 5c 5e 3d d8 61 20 3e
       -0.015652759 0.011644093 0.05428745 0.15662324
0001f0 07 4a 1d bd 42 28 99 3a 66 ec 82 bd ac d7 1d be
       -0.038400676 0.0011684971 -0.06392746 -0.15414304
000200 0e 5f 8f 3d fe 6c 00 bd a6 87 0c bd c2 e3 39 bd
       0.07000552 -0.031353943 -0.034309052 -0.045383222
000210 3d 22 dd 3d 66 52 a3 3d e9 f0 31 3c 93 d6 20 bd
       0.10797546 0.07974701 0.01086066 -0.039267134
000220 e0 63 b1 3d 52 30 dc 3c 76 95 f1 3d f0 25 b5 bd
       0.08661628 0.02687851 0.117960855 -0.08845127
000230 19 c6 de 3a 63 9e 02 3e 71 dd df 3d ec 47 cf 3c
       0.0016996294 0.12755732 0.109309085 0.02530285
000240 5a 68 4c 3c a6 8c b9 bc a8 85 05 be 95 97 89 bd
       0.012476051 -0.022650074 -0.13039267 -0.06718365
000250 5f a8 ad bd fd 41 fb bc 44 ac 17 bd a7 af 85 bc
       -0.0847938 -0.030671114 -0.03702952 -0.01631911
000260 91 4a 83 bd f8 8e c5 bd 02 e8 58 3d e0 a7 ef 3c
       -0.06410707 -0.0964641 0.052955635 0.029254854
000270 f2 08 07 bd 67 ad cd 3c 9b a7 00 bb 10 1c c5 3c
       -0.032967515 0.025107099 -0.001963115 0.024061233
000280 52 6e 25 3d 2b 65 bb 3d 16 a7 c5 3c 43 f6 2e 3c
       0.040388413 0.09150156 0.024127524 0.010678831
000290 d1 3c 48 bd 05 09 68 bc 4c 6e 39 bc 38 a3 14 3e
       -0.048886124 -0.014162307 -0.011317801 0.14515388
0002a0 41 41 0f 3d 13 c9 1e 3d 1d be 63 3d da 86 67 bd
       0.03497434 0.038765978 0.055601228 -0.05652509
0002b0 01 97 97 bd 60 03 83 3d 27 54 ce 3a 99 2c a8 3d
       -0.074018486 0.06397128 0.0015741632 0.08211631
0002c0 ed 4f 8a 3c 1c 60 6d bd 8e 21 2d bc ad 94 06 3b
       0.016883815 -0.057952985 -0.010567082 0.0020535395
0002d0 6d 00 83 bc d7 49 24 3d 1d 1c c3 3d b5 93 a5 bc
       -0.015991414 0.04010948 0.095268466 -0.020212034
0002e0 b7 ca 13 bd f0 08 75 bb 5a dd ca bd bb 25 ca bc
       -0.036081996 -0.003738936 -0.09905501 -0.024676194
0002f0 2a a0 26 be 71 8c 21 bc fa c6 2b 3e e1 e3 bd 3d
       -0.16272035 -0.009860144 0.16775122 0.0927198
000300 35 36 d8 3d d8 6c 61 bd 85 fa a3 bc 27 bf 44 bd
       0.10557214 -0.055035442 -0.020016918 -0.04803386
000310 4c b3 ba 3d 05 ca 73 bc 33 ba 19 ba 6a cf e3 bc
       0.091162294 -0.014879708 -0.00058642327 -0.027808864
000320 ec 32 94 be 77 74 87 3d e2 60 53 bd 06 12 cf 3d
       -0.289451 0.06614011 -0.051606067 0.101108596
000330 a4 a8 57 bd 0f 1b b9 3d fe 9c 04 bd 16 0b de bd
       -0.052651063 0.09038364 -0.032376282 -0.10841958
000340 b4 75 b3 bd f8 4a 8f 3d e5 c4 5b 3d 33 59 ae bd
       -0.087626845 0.06996721 0.05365457 -0.08513107
000350 a8 59 e1 3d 9f 14 8c bd de 72 d1 3d d8 67 91 bb
       0.11003429 -0.06839871 0.10226987 -0.004437428
000360 7b 92 00 bd b0 97 88 bc 73 c1 88 bd 3f 76 06 3c
       -0.031389695 -0.016673893 -0.066775225 0.008206903
000370 8b c1 79 bd 5d d0 4c bd fa 19 43 bd 37 af a0 3d
       -0.060975593 -0.0500034 -0.047632195 0.078459196
000380 76 95 e1 bb 98 d9 74 3d 7f 97 dd bd ec f5 c4 bd
       -0.006884272 0.059777826 -0.10819911 -0.096172184
000390 ed bf f8 3d 28 e7 92 3d d3 3b 08 3e 3c 5f 8f bd
       0.12145982 0.07172996 0.13304071 -0.070005864
0003a0 e6 8b 9a bd 23 70 19 3a 79 72 46 3d 16 60 8a bd
       -0.07546215 0.00058531965 0.048449013 -0.06756608
0003b0 b6 75 e7 bd b4 51 42 bd a9 c0 e9 3a 6d 22 49 3d
       -0.113017485 -0.0474412 0.0017833906 0.049105097
0003c0 97 11 3f bc 71 e6 97 bd c1 96 a9 3b c3 9c 94 bc
       -0.011661909 -0.07417 0.005175442 -0.018141156
0003d0 a1 a5 1f bd d2 61 b0 bd c8 69 46 bd 08 d0 2c 3d
       -0.038976315 -0.08612408 -0.048440725 0.04219058
0003e0 da a8 30 bd 5e 78 58 3d b2 b9 f4 bc 04 b3 67 3e
       -0.04312978 0.052849166 -0.029873703 0.22626883
0003f0 32 8e de 3d ca 7a ee bc 96 69 e6 3d 69 ec d6 3b
       0.10866965 -0.029111285 0.11250608 0.006558944

model.4.weight f4 [256, 256]
000000 18 4c 53 3c 68 68 f6 bc 06 45 59 bd c4 26 72 3d
       0.01289656 -0.030079082 -0.05304434 0.059119
000010 60 ee 7e 3b 4b 3b 9e bd f0 5d 9e 3b a0 4d 7f 3c
       0.0038899407 -0.07726153 0.0048329756 0.015582472
000020 ee 78 24 3d 30 25 c0 bb d0 0b 38 bc ca 30 87 3c
       0.04015439 -0.005863808 -0.011233285 0.016502757
000030 74 92 c4 bc a3 7c 12 bb 80 ed 60 bb a6 6c 2c 3d
       -0.023995616 -0.0022352121 -0.0034321249 0.042095803
000040 f2 c4 68 bd 18 bd 94 bc d0 fe db bb 78 55 29 bc
       -0.056828447 -0.018156573 -0.0067137256 -0.010335319
000050 d0 25 c0 3c f9 0b 00 3d 34 84 c5 bc 7c 7f 49 bd
       0.02345553 0.031261418 -0.02411089 -0.049193844
000060 b0 ad 33 3c 6d 66 ce bb ca db 59 3d de f9 4c bd
       0.010966703 -0.006298831 0.053188123 -0.05004298
000070 a2 3e b3 bd 64 90 42 bd 36 bb c3 bb 10 58 c9 3c
       -0.08752181 -0.047500983 -0.005973245 0.024578124
000080 a8 90 0f 3d 26 0e 61 bd 78 60 52 bd f7 35 c7 3c
       0.035050064 -0.054945134 -0.05136153 0.024317725
000090 d4 1c 06 3d 16 0c 63 3d 70 75 85 bd 26 ab be 3c
       0.032742336 0.055431448 -0.0651654 0.02327497
0000a0 6a 8a 0d 3c 50 e7 d9 3c 5e 2c a8 3c fe 6e 67 bd
       0.0086389575 0.026599556 0.020528968 -0.056502335
0000b0 65 61 c2 bc 44 fc 22 bd a7 c8 6c bd 26 b4 67 3d
       -0.023728082 -0.03979136 -0.057808544 0.056568287
0000c0 0e 02 04 3d 84 48 09 bd 0c 7d e7 3c c4 e2 08 bd
       0.032228522 -0.033516422 0.02825787 -0.033419386
0000d0 d9 29 60 bd 10 36 e8 bb 30 ae e4 3c 54 fd e6 3c
       -0.05472741 -0.007086523 0.02791509 0.028196968
0000e0 c3 9e 11 bd a0 28 7f 3d 3a 14 d9 3c f2 24 e4 3c
       -0.035551798 0.062294602 0.026498903 0.027849648
0000f0 70 2a 51 3d 58 c1 0d bc 85 84 4a bd d7 e2 23 bd
       0.051065862 -0.008652054 -0.049442787 -0.040011253
000100 fa b5 11 bd 27 47 83 3c f4 3f 01 bd 0f 62 c4 bc
       -0.035573937 0.016025139 -0.03155513 -0.02397254
000110 48 f3 92 bc aa 5a 7d bd 4e d2 15 bd 6a da 62 3d
       -0.017938271 -0.061854042 -0.036577515 0.055384077
000120 98 57 d7 3c 05 4a 2f 3c de 6b 28 3d fc 99 37 3c
       0.026286885 0.0106988 0.041118495 0.011206146
000130 15 b1 9a 3c e1 1b e8 bc f3 0b 66 bc 26 4d a0 3c
       0.018883267 -0.028333606 -0.014040935 0.019568037
000140 7c 05 1b 3d a4 4b c7 3c 44 99 83 bc 04 f1 c6 3c
       0.037847027 0.02432806 -0.016064294 0.024284847
000150 1e c2 52 3c 94 43 87 bd e9 67 3f bc a8 4b e3 3c
       0.012863664 -0.066046864 -0.011682489 0.027746037
000160 7f cb 0b 3d 8d 76 91 bd e7 0d 61 3c 98 7f 2c bd
       0.034129616 -0.0710269 0.013736225 -0.04211387
000170 0a d5 13 bd 60 3f 29 3b a0 2c 94 bd ac a8 5f bd
       -0.03609184 0.0025825128 -0.07235074 -0.054604217
000180 25 55 a4 bd ae a6 1b 3d ec 65 5c bd 4c 7d 8b bd
       -0.080240525 0.038000755 -0.053808138 -0.06811008
000190 8c f3 98 bc d6 8d 89 bd e0 f0 44 bc e8 c7 9e bd
       -0.01867082 -0.06716506 -0.01202032 -0.07752973
0001a0 3d 93 71 3d 48 ab 4c bc 8c bc 54 bd e5 46 b2 3c
       0.058978308 -0.0124920085 -0.051937625 0.02176232
0001b0 c0 bd a0 bd 83 fd 7e bd 84 47 24 3d e4 4f 07 3d
       -0.07848692 -0.062253486 0.040107265 0.033035174
0001c0 c0 6b c3 3a 32 b4 46 3d b0 c9 b6 3c b7 c5 e8 3c
       0.0014909431 0.04851169 0.022312969 0.02841459
0001d0 a0 8d c9 bb 78 19 62 bc c3 08 21 bd 23 43 45 bd
       -0.006150916 -0.013800018 -0.039314996 -0.04815973
0001e0 52 e8 64 3d d2 f3 f1 3c 28 dc 53 bd 47 15 a2 bd
       0.05588562 0.029535208 -0.05172363 -0.079142146
0001f0 a0 26 b2 bc d6 68 22 3c 48 26 3b bc 40 4f 7d 3c
       -0.021746933 0.00991269 -0.011422701 0.015460789
000200 ca 0a 80 bd 84 67 5e bd 07 01 90 bc ac 7b 75 bd
       -0.06252058 -0.05429794 -0.017578615 -0.059932396
000210 5c e3 34 bd 8d 56 84 3d a0 84 f9 3b f0 6b 86 3c
       -0.04416214 0.06461821 0.007614687 0.01640889
000220 3c bd 33 bc bf 58 60 bc cf 13 37 3d 96 a2 77 bd
       -0.01097041 -0.013693034 0.044696625 -0.06045779
000230 64 de 48 bd 7f 01 e7 bb 7c c5 46 bc e0 09 5a 3d
       -0.049040213 -0.007049739 -0.012132045 0.053232074
000240 8c 6a d1 3c f8 e8 da 3c 6b 17 df 3c 2c 86 0a bd
       0.0255635 0.026722416 0.027232846 -0.033819363
000250 f8 50 20 3d 7b 64 37 3b 6c b1 a9 3c 00 a4 61 bb
       0.039139718 0.0027983475 0.020714484 -0.0034430027
000260 20 ec ab 3b 50 3d 5e bd bc a0 92 bd f1 37 6f 3c
       0.005246654 -0.05425769 -0.07159564 0.01460074
000270 08 77 04 bc 1b d8 94 3b e0 28 78 bb 30 58 ac bb
       -0.00808502 0.0045423633 -0.003786616 -0.005259536
000280 08 89 e1 3c 1d 0f 9b bd a9 e0 17 3d 78 84 59 3d
       0.027531162 -0.07571242 0.037079487 0.053104848
000290 78 8b 36 3c e0 94 62 bd 00 32 a5 3a ee 54 3e bd
       0.01114165 -0.05531776 0.0012603402 -0.046467714
0002a0 d1 ab d6 bc b2 2c a3 bc cd 3b 73 bd dc 85 61 3d
       -0.026204975 -0.019918773 -0.059383202 0.0550593
0002b0 0a 6a 31 bd 13 e8 7b bc 87 27 27 3d be df 23 3c
       -0.043314017 -0.015375155 0.04080918 0.010002075
0002c0 f7 12 0b bd 28 28 67 3d b0 4e e7 3c 58 17 5e 3d
       -0.033953633 0.05643478 0.028235763 0.05422148
0002d0 a0 ca c7 bb 3f 11 d7 bc 3a 5a 3f bd 4c 1f ee bc
       -0.006097153 -0.02625334 -0.046716906 -0.029067658
0002e0 e0 e7 1f bb 33 5e e0 3c 27 e3 f1 3c 9c bb 76 bd
       -0.0024399683 0.027388668 0.02952726 -0.060237512
0002f0 c0 14 f7 3b a8 8b a1 3c b7 6b ff bc d7 58 b3 bd
       0.0075403154 0.019719914 -0.031179292 -0.08757179
000300 66 73 f9 3c 00 58 89 3c 38 d7 09 3c 2a c1 68 3d
       0.030450534 0.016765594 0.008413129 0.05682484
000310 b7 2e c0 bc 30 41 e2 bb f2 62 9c bd 9c 43 cf bc
       -0.023459775 -0.0069047436 -0.0763606 -0.025300793
000320 be 59 47 bd df a6 7e bc 72 36 1b 3d f2 34 87 bd
       -0.04866957 -0.015542715 0.03789372 -0.066018954
000330 d0 33 6f bc 37 9c 92 bd 77 0c 20 bc 12 f4 aa bd
       -0.014599755 -0.07158702 -0.009768597 -0.08347334
000340 c4 d2 42 bd 00 da 21 bd ad ed 9c 3c 58 b5 3c bc
       -0.047564283 -0.03951454 0.019156301 -0.011517845
000350 e7 c3 0c 3c 58 8c 5b bc 9a be ed 3c 6f d6 ee 3a
       0.008591629 -0.01340016 0.02902155 0.0018221865
000360 50 62 4d 3c 20 3d 58 bc be a3 39 bd 5d 6c 31 bd
       0.012535647 -0.013198167 -0.045322172 -0.043316234
000370 e4 d0 72 3d 48 0b 21 3d 8e a0 7b bd 40 5e 90 bc
       0.059281245 0.0393174 -0.061432414 -0.017623067
000380 22 55 4b bd 1e 45 c9 3b 4e a0 68 3d 50 9c b0 bc
       -0.049641736 0.0061422726 0.056793503 -0.02155891
000390 e5 9c 6d bd a3 ad da bb b6 d8 85 bd c2 d1 13 bd
       -0.058010954 -0.006673531 -0.06535475 -0.036088713
0003a0 d3 51 c2 3a 78 86 6d bd 8d d0 90 bc 32 71 0f bd
       0.0014825411 -0.057989568 -0.01767757 -0.03502006
0003b0 da 4c 97 bd b0 c8 65 bc b4 ad b6 bd 47 97 98 bd
       -0.07387705 -0.014024898 -0.0891985 -0.07450729
0003c0 d0 ca 6a bc 84 81 2e 3d 1a a3 fd bc f0 59 08 bc
       -0.014330581 0.042603984 -0.030961562 -0.008322224
0003d0 85 18 8f bd 00 bb 95 b9 88 a4 84 bc 2e 9d 38 bb
       -0.069870986 -0.0002855882 -0.016191736 -0.0028169858
0003e0 cc 51 07 bd 50 02 33 bc 70 92 7e 3c 8c 1a 86 bd
       -0.033036992 -0.010925844 0.015537843 -0.06548032
0003f0 c3 23 83 bc 10 f6 1e 3c 60 e2 3d 3c 60 1b de 3c
       -0.016008263 0.009702221 0.011589617 0.027112663

model.4.bias f4 [256]
000000 5b 8b a4 bd 1b ae 90 bd c2 d7 86 3d f9 9b 43 bd
       -0.080343924 -0.07064458 0.06584121 -0.04775617
000010 c9 80 79 bd 7a 08 df 3d 2b fd 67 bd b5 28 9b bd
       -0.060913835 0.10890289 -0.056637924 -0.075761236
000020 b5 5f 33 bc 64 86 8e bd 84 f8 e3 3d 96 0c 22 bd
       -0.010948111 -0.06959227 0.11131385 -0.039562784
000030 9b ad 29 be fe 99 bd bd 4f 5b 86 bd 4b 92 10 bd
       -0.16570131 -0.09257887 -0.065603845 -0.035295766
000040 fc a8 8a 3d cb 10 4e 3a 75 2d 6c bc ac 76 01 3c
       0.067705125 0.0007860779 -0.014415135 0.007901829
000050 45 13 f8 bb e4 c0 e7 3c e0 a0 32 3d b3 5d 39 bd
       -0.0075706565 0.02829022 0.043610454 -0.045255374
000060 e6 cd 96 bd 9e 6e 8a bd b8 16 a7 bd a9 ac eb bb
       -0.07363491 -0.0675938 -0.0815863 -0.0071922136
000070 58 0b dc 3d 2d 6c 00 bd dd 70 df 3d 5c c7 d0 bd
       0.10744351 -0.031353164 0.10910199 -0.10194275
000080 43 4e 02 3d 3b 2d b3 3b 55 bd 9d bd 80 3b 51 bd
       0.031812917 0.0054680384 -0.07702128 -0.051082134
000090 1b 1d ae bd c1 03 59 3a 80 a2 8d bd a8 94 93 3d
       -0.08501645 0.00082784524 -0.0691576 0.07206088
0000a0 c2 04 7c 3d 2a eb 8e bd f3 f5 de 3c 05 de 18 be
       0.061527975 -0.06978448 0.027216887 -0.14928444
0000b0 10 75 48 3d b7 ee 2b bd ec 1c 34 3d a1 b0 da bc
       0.048939764 -0.041975703 0.043972895 -0.026695551
0000c0 2d f1 f3 3c af b7 3d bd b0 e3 a0 bc bc c1 54 3d
       0.029778088 -0.046317752 -0.01963982 0.051942572
0000d0 2f 4d 11 3e 6a a2 bf 3d 45 6f ac 3c 67 14 b3 bc
       0.141896 0.0935715 0.021049151 -0.021860315
0000e0 53 38 75 bd 7c 72 b9 3d cc 96 00 3d db e6 4e bd
       -0.059868168 0.09055039 0.03139381 -0.05051313
0000f0 d2 3f 06 3c 4e 17 ff bd 80 be 29 3d 52 66 2d 3d
       0.008193927 -0.12455617 0.04144144 0.04233391
000100 a5 17 02 bd 08 2c 1b be cb a2 c9 3c a3 94 5a bd
       -0.03176083 -0.15153515 0.024613759 -0.053364407
000110 db 76 25 3d 89 85 4d bd 71 91 0a bd fc d7 3f bd
       0.040396553 -0.050176177 -0.03383011 -0.046836838
000120 1c b2 9a bd 36 f1 9b bd 95 2e 9b 3d ab ed 1e bd
       -0.07553503 -0.07614367 0.07577244 -0.038800877
000130 9d 1c 20 be ae 21 c8 3d 5a cf 83 bc a7 6b 7c 3d
       -0.15635915 0.09772049 -0.016090084 0.061626103
000140 ba 19 97 bd df 22 90 3d 2f 22 44 3d cc 96 f8 bd
       -0.07377954 0.07037901 0.047884163 -0.12138137
000150 61 38 62 3d c8 c0 a0 bd 6f 61 17 bd b7 f2 cc bd
       0.05522955 -0.0784927 -0.036958154 -0.10007232
000160 c7 dd 0a 3c 6b a9 0c 3d 9d 8f 46 bd e5 7d 3b 3b
       0.008475727 0.034341257 -0.048476804 0.0028608975
000170 1e 97 9e bd 66 f5 c6 bc 83 d1 9e bd 69 0a bf bc
       -0.07743667 -0.024286937 -0.07754805 -0.023320394
000180 8e 03 d8 bd e1 8b 8c bd 16 5a 8b bc 93 90 4f bd
       -0.10547553 -0.06862617 -0.01701073 -0.050674986
000190 9a e5 6a bd 96 c8 9a 3c a2 b7 08 3e aa bf 46 3d
       -0.05734787 0.018894475 0.133513 0.04852263
0001a0 03 a0 9b bd 38 bd 5e bd 4d db cb bd 21 71 68 bc
       -0.07598879 -0.05437967 -0.09953938 -0.014187128
0001b0 48 ea 6d 3c 41 08 a6 3c a8 6a cd bd a7 8e e4 bb
       0.014521189 0.020267608 -0.10030109 -0.0069750133
0001c0 98 a7 0e 3c 21 bc 97 3d 10 3b fc bc 47 9f 3c bc
       0.00870695 0.074089296 -0.030789882 -0.011512584
0001d0 c5 11 14 bd 6a 5f a5 bd ab 53 8a 3d 8e b6 96 3c
       -0.03614976 -0.080748394 0.0675424 0.018397596
0001e0 f5 b4 8c 3d c8 ca 00 bc 6e 93 b1 3d 61 dd 94 bd
       0.06870452 -0.007860847 0.08670698 -0.07268787
0001f0 6b f3 df 3d e9 9e 08 3d 27 3b b2 bd d4 82 cc 3d
       0.109351 0.033354674 -0.08702689 0.09985891
000200 d2 bc 05 3e 1b 14 8a 3d b6 a8 a7 bd 6b b9 ee 3b
       0.1306031 0.06742116 -0.08186476 0.007285287
000210 0b 78 92 3d c0 ed 02 3b 49 5c 5f 3c 5b 11 1f 3e
       0.07151803 0.0019978136 0.013632842 0.15533964
000220 4c 53 a6 3d 9b 44 21 3d c3 49 de 3d 63 81 a9 3d
       0.08121356 0.039372068 0.10853913 0.08276632
000230 38 af db 3d 2c be f7 3d a8 c9 c9 bc 73 b8 ba 3d
       0.1072678 0.12096819 -0.02463229 0.09117212
000240 11 45 27 bb 40 7b cf 3c 39 be 0a 3d 17 b0 d6 bc
       -0.0025523345 0.025327325 0.033872817 -0.026207013
000250 cf ec 33 bd ba 47 35 bd 0a d9 90 3b 63 86 4e bc
       -0.04392701 -0.044257857 0.0044204043 -0.0126052825
000260 34 7a 1f bd 97 f5 55 bd d1 6d 75 bd 51 71 15 3d
       -0.0389349 -0.052236166 -0.059919182 0.03648502
000270 69 30 a7 bc 90 77 9c bd 0d fd 86 3d e4 e3 ce 3c
       -0.020408826 -0.07639992 0.06591234 0.025255151
000280 ca a0 28 ba 89 d7 50 bc 86 07 e8 bd a8 2a cd bc
       -0.0006432651 -0.0127467 -0.1132956 -0.025044754
000290 d8 09 61 bd 5c e7 89 bc 00 b2 b9 3d 20 3f d0 3d
       -0.05494103 -0.016833954 0.09067154 0.1016829
0002a0 bd 97 17 bd 3e e6 20 be f0 32 80 bd 11 94 e1 3d
       -0.037009943 -0.1571283 -0.062597156 0.110145696
0002b0 85 cb 1f bd 80 ba 6f bb 3b 77 4b bd e9 84 8b bd
       -0.03901245 -0.0036579669 -0.049674254 -0.0681246
0002c0 c2 59 b6 bd f7 5e 73 bc 20 60 2b bd 5e 20 95 bd
       -0.08903839 -0.014854184 -0.04183972 -0.07281564
0002d0 b2 8c 80 3c dc 11 97 bd 0c 24 7d bd 30 b9 2e bd
       0.015692089 -0.07376453 -0.061801955 -0.042657077
0002e0 6e 2a b0 3d e4 bf 79 bd 82 c0 c0 3a 58 54 2e 3d
       0.08601843 -0.060974017 0.0014705809 0.042560905
0002f0 e9 c8 d9 3d 04 d1 80 bd b7 aa 89 bd fa 88 77 bd
       0.10634024 -0.062898666 -0.067220144 -0.060433365
000300 73 c9 d5 3c b9 23 16 bb 08 bc 6a bb 80 35 81 bc
       0.026097035 -0.0022909476 -0.0035817642 -0.015772581
000310 7b eb 9e bd 41 cc 56 3b 12 78 66 3d f3 98 11 3e
       -0.07759758 0.0032775553 0.05626685 0.14218502
000320 33 fb 01 3e a9 f4 a9 3d 3d d5 d3 3c 42 a0 98 3d
       0.12693481 0.08298618 0.025858516 0.07452442
000330 6a e7 8a bd 5c f8 65 3d a1 35 eb 3c 53 d3 82 bd
       -0.0678242 0.056145057 0.028712096 -0.06387963
000340 5c 9d 0a 3e 6c 67 8f 3b f2 58 43 3d 3b 94 0e bd
       0.1353659 0.0043763425 0.047692247 -0.034809332
000350 c0 74 98 3d be 80 04 3d 3b 9f f8 bc 29 23 35 3e
       0.07444143 0.03234934 -0.030349365 0.17689194
000360 b6 dc 8c 3d c1 66 27 3e 22 81 6d bd cf 42 a9 bc
       0.06878035 0.16347791 -0.05798448 -0.02066174
000370 98 23 f9 3d 30 c4 60 3d 63 7e cc bb b0 8f 23 bd
       0.12164992 0.0548746 -0.0062406524 -0.039931953
000380 c8 ce 7d 3d ab 3f c8 3d 37 74 9b 3c aa cb 27 3c
       0.06196478 0.09777769 0.018976314 0.010241428
000390 82 b7 94 bd 67 1b 99 3c f9 4d 91 3d ec 0a 7b bd
       -0.07261564 0.018689824 0.0709495 -0.061289713
0003a0 cb 4f 24 3d 8c f1 98 3d 58 c7 66 bd 5d 60 d3 3a
       0.04011516 0.074679464 -0.056342453 0.0016126741
0003b0 01 b7 d3 3d 12 34 03 3d 2e b7 34 3e b4 05 61 bd
       0.103376396 0.03203208 0.17648003 -0.05493708
0003c0 73 ca d7 3d 81 15 94 bd da fa 80 3d 08 56 bd bd
       0.10536661 -0.07230664 0.06297846 -0.09244925
0003d0 9b a6 11 bd 0b d0 4e bd 2f f7 dd 3c 46 3c 7c bd
       -0.035559278 -0.050491374 0.027095405 -0.06158092
0003e0 8c 4b 15 bd 1c a4 1a bd 6f a2 b0 3d ff 9e 31 3d
       -0.036449 -0.037754163 0.08624732 0.04336452
0003f0 5e 91 81 bd 6e 51 e8 3d 2b 4c a4 bd fa 01 81 bd
       -0.06326555 0.113436565 -0.080223404 -0.06299205

model.6.weight f4 [4, 256]
000000 61 14 13 3b c9 cb 2a bd 6c 7d cf 3d 48 42 3d bc
       0.0022442567 -0.04169825 0.10131344 -0.011551447
000010 f7 26 33 bd 08 1c f5 bd f3 83 dc be b8 19 10 bc
       -0.04373833 -0.11968237 -0.4306942 -0.008795194
000020 50 3c e4 3c 6a 1a 02 3d 07 b4 ba bd 56 76 16 bd
       0.02786079 0.03176347 -0.09116369 -0.036733948
000030 1d 0e 2f 3d c9 d4 f7 3c 57 a7 4e bd eb 80 56 bc
       0.04273807 0.030252831 -0.050452556 -0.01309226
000040 5a cc 88 3e 5b bf 89 3e 1e dd 85 bd fd 22 88 3e
       0.26718408 0.26903805 -0.065363154 0.26589194
000050 22 79 bb bd dd e8 a6 bd 19 a3 dd bf 41 b0 0b 3d
       -0.091539636 -0.08149884 -1.7315398 0.034103636
000060 84 ab 06 3c c0 64 13 bc aa 1a 34 bd e3 87 ba bd
       0.008219603 -0.008996189 -0.04397074 -0.091079496
000070 88 0e d1 bd 65 ca ed bc 66 a6 51 bf af cf d7 bc
       -0.1020785 -0.029027173 -0.8189453 -0.026344148
000080 46 f2 45 3d c7 66 3d 3d ce b5 b7 3b bb 8b 93 bc
       0.048326753 0.046240594 0.0056063896 -0.018010965
000090 0e cf 9d 3b 7b c6 7b 3e b5 0b 1d bd ef 11 1a 3b
       0.0048159426 0.24587433 -0.038341243 0.0023509224
0000a0 1f f8 6b 3d 94 f7 b5 bc 3a 62 f1 bc da 24 c3 3e
       0.057609674 -0.022212781 -0.029465783 0.38114053
0000b0 2f 8b 0e be 37 9a a4 bc 5f 79 8e 3d af d6 60 bd
       -0.13920282 -0.020093067 0.069567434 -0.05489224
0000c0 70 2e 4e 3b 18 6d cd be de a4 13 bf 20 02 a2 3c
       0.0031460784 -0.40122294 -0.5767344 0.019776404
0000d0 69 04 67 3e e2 75 63 3e da d5 ee 3d 85 f5 ae 3e
       0.22560276 0.22212937 0.11661883 0.34171692
0000e0 f1 6a 22 bb 2d c2 7d 3e 0e 14 8d 3f 49 0a 67 3e
       -0.002478298 0.24781103 1.1021745 0.22562517
0000f0 35 2d d9 bd 83 8a 76 bf ff b7 1f 3e 88 6a f6 be
       -0.10604326 -0.963051 0.15597533 -0.48128152
000100 2c 40 88 3d 38 ab c8 bf de c3 e0 be 6f 4e 8c 3c
       0.06652865 -1.5677252 -0.43899435 0.017127244
000110 4e bd 1d 3e 65 88 b0 3c c3 3f 97 bc 4f ba ee bc
       0.15404245 0.021549413 -0.018463021 -0.029141573
000120 78 3a 67 3c ef 56 bf 3c ea 87 1f 3d 3d bb 17 3c
       0.014113061 0.023356883 0.038947977 0.00926095
000130 d0 c2 0a 3f da ba cc 3d 52 ab 27 bd 45 df 81 3d
       0.5420351 0.099965766 -0.04093487 0.063414134
000140 1c 39 08 bd dd 58 6e be e7 c3 d4 bd d0 61 a0 be
       -0.03325759 -0.23276086 -0.10388928 -0.31324625
000150 7b 70 c3 bd 59 3d da bc 08 6f 17 3d 8a 4f 60 bd
       -0.09542938 -0.026640581 0.036971122 -0.054763354
000160 48 b7 7a 3e 26 83 b7 3c de 6b e1 bc 1e f5 27 3e
       0.24483979 0.022401404 -0.027517255 0.16402099
000170 ce ab 23 3c 6f b3 8f 3c 52 1e a5 be ad a6 77 bd
       0.009989692 0.017541615 -0.32249695 -0.06046169
000180 0b 80 25 3c f5 32 9c bb 96 c5 79 3a 7e a0 57 be
       0.010101329 -0.0047668167 0.0009528039 -0.21057317
000190 14 eb 88 bb 9e 50 28 bc ba 20 5f be e7 70 5a 3e
       -0.004178414 -0.010273127 -0.21789828 0.21332131
0001a0 ab 4d 52 bd 7a 51 f7 bc b7 8b b5 3c a1 d3 8f 3d
       -0.0513436 -0.030190218 0.022161348 0.07022787
0001b0 1a 1e 1a 3e 8f 81 94 3e 1a 09 34 bd 47 a1 17 3d
       0.15050545 0.29005095 -0.043953992 0.03701904
0001c0 7b d2 08 3f 1c 0d 88 3e 01 fd 53 bf 4d be 90 bd
       0.5344617 0.26572502 -0.8280793 -0.07067547
0001d0 3b 1d 48 be 54 c3 0e 3c 85 7b 2f 3f 2f 7d 4f be
       -0.195424 0.008713562 0.6854785 -0.20262598
0001e0 cc 05 52 bf 64 6c f5 be b5 9d 81 bd 80 a0 10 bb
       -0.82040095 -0.47934258 -0.06328908 -0.0022068322
0001f0 bc 38 3b 3c 4e 06 92 3c 4a bb 27 bb 32 d0 2a 3e
       0.011427101 0.017825272 -0.002559381 0.16680983
000200 28 f3 36 bc 1c 5c 87 be 29 10 b8 bc 75 fe 64 3d
       -0.011166371 -0.2643746 -0.022468643 0.05590673
000210 f8 5d 0c 3e c2 d4 10 3e 5f c1 a9 3c 0b 5c 8e bd
       0.13707721 0.1414366 0.02072209 -0.069511496
000220 f2 17 3f be 69 12 23 bd 16 76 a1 3d 45 65 ab bd
       -0.18661478 -0.03981248 0.07883851 -0.08368925
000230 20 b8 82 be ea 9b eb be 7c ec 09 3d 2a c8 6d be
       -0.255311 -0.4601739 0.033672795 -0.23220888
000240 f4 46 49 3b 63 16 cb be 3d f0 18 be e4 d1 37 3f
       0.0030712457 -0.39665517 -0.14935394 0.7180464
000250 b1 35 69 3d 60 81 b8 be 4b ba 7f 3d 54 eb 65 3b
       0.05693597 -0.36036205 0.062433522 0.0035082893
000260 6b 18 47 3c c2 63 31 3c 6f 45 a7 3c de 70 43 3e
       0.012151818 0.010827007 0.02041885 0.19086024
000270 b5 d2 20 bf 06 15 56 3c c6 ae 72 3d 19 e0 fe be
       -0.62821513 0.013066536 0.05924871 -0.49780348
000280 9e 72 8a bd 12 27 f9 bc 9e ad 81 3e 25 0c 3e bd
       -0.06760143 -0.030414138 0.25327772 -0.0463983
000290 71 c8 cd bc 54 e0 3e 3d bc 43 92 bd e8 cb 92 3c
       -0.025119992 0.046600655 -0.071418256 0.017919496
0002a0 50 9d 3f 3b 1b 5f 1e 3e 34 35 ac bc c3 32 37 be
       0.0029238053 0.15465967 -0.021021463 -0.17890458
0002b0 8c 24 c4 3c 90 e2 81 3e 86 03 32 bd 44 68 61 bd
       0.023943208 0.25368166 -0.04346039 -0.055031076
0002c0 c5 ba 51 bc 36 33 63 3e e3 a3 63 3e c2 0a 7c 3d
       -0.012800877 0.22187504 0.22230487 0.061533697
0002d0 c6 a3 82 bc 53 6a 97 3c 40 76 6d bc cc 95 65 3d
       -0.015947234 0.018483317 -0.014493525 0.05605106
0002e0 73 dd a5 bd cc 59 36 bd 59 71 87 be 80 d4 76 3e
       -0.08098879 -0.04451923 -0.26453665 0.241045
0002f0 1c 0f ba 3e 81 3c a1 3c ef d1 a1 bd d7 52 fb bc
       0.36339653 0.01968217 -0.0790137 -0.03067915
000300 3a 0d da 3c 5b a0 96 be 31 fd a3 be 41 77 64 bf
       0.026617635 -0.29419217 -0.32029107 -0.8924447
000310 b5 98 e1 3b fa 60 a3 be 2d d9 db bd 30 03 24 bf
       0.006884659 -0.31909925 -0.10734782 -0.64067364
000320 0c f5 9d bd 04 47 46 be 4b 6b 4b 3d 6d de 81 be
       -0.077127546 -0.19363028 0.04966287 -0.2536501
000330 b5 90 81 3e fe 77 77 3d 6c 81 c2 be 23 39 55 3d
       0.25305715 0.060417168 -0.37989366 0.052056443
000340 9e ed 79 be 06 01 a7 bd 7f 14 03 bf 62 64 93 bc
       -0.2440705 -0.08154492 -0.5120315 -0.017992202
000350 9c 07 8a 3d 71 90 2f 3d 70 e4 ae bf a6 bf cd be
       0.067397326 0.04286236 -1.3663464 -0.4018528
000360 29 ad 95 3e 13 b4 23 be d1 c6 19 bc 60 b7 24 3d
       0.29233673 -0.15986662 -0.00938578 0.040213943
000370 5a 71 48 be 62 68 19 3e c0 82 e5 3d 98 8f 54 bd
       -0.1957449 0.14981225 0.11206579 -0.051894754
000380 79 4b 7b 3a 46 ba 5c 3d 98 22 cd 3c 7f 13 c6 3d
       0.00095861364 0.05388858 0.02504091 0.09671687
000390 3d 35 18 3c 95 0c c4 be 6b 89 14 3e f7 42 b8 3c
       0.009290037 -0.3829085 0.14505546 0.022492869
0003a0 c2 c6 ec 3d e0 ed 4b 3d d5 fb 63 3d 42 b9 6f 3e
       0.115613475 0.049787402 0.055660088 0.23410514
0003b0 e0 5b 6b be 40 dc da be df 2e 83 be b0 af ca bc
       -0.22984266 -0.42746162 -0.25621697 -0.024741977
0003c0 c3 54 e1 bd 60 0b 75 bc a9 be 78 be 0d d0 ed bc
       -0.11002495 -0.014956325 -0.24291481 -0.02902987
0003d0 69 61 54 3c f8 a5 a5 3c f9 15 d6 3d a8 cd ae 3c
       0.0129626775 0.020220742 0.1045341 0.021338299
0003e0 1f 08 05 bf 04 65 0e 3a 1e d0 5a 3d d6 e9 ac 3e
       -0.51965517 0.00054319226 0.053421132 0.33772153
0003f0 2c 6b 98 bc 46 b8 1b 3d f7 5c 5d bd 54 b2 7e bd
       -0.018605791 0.038017534 -0.054043736 -0.062181786

model.6.bias f4 [4]
000000 33 00 a2 3c c2 57 91 3e 58 38 ea 3d 75 d0 fc 3d
       0.019775486 0.28387266 0.11436528 0.123444475
