src/saved_models/student_push.pth (torch, 547160 bytes, 8 tensors)

model.0.weight f4 [256, 13]
0	0x40791b49	3.8922904
1	0x3ce9fd7c	0.028563254
2	0x4016530e	2.3488193
3	0x3e2a8d42	0.16655448
4	0xbedc2f34	-0.43004763
5	0xbf03f487	-0.51544994
6	0xbf2fa420	-0.6860981
7	0x3eb0fb82	0.34566885
8	0x3df84d67	0.12124138
9	0xbeaf78c0	-0.34271812
10	0x3d0a2fe6	0.033737086
11	0xbe897ce2	-0.2685309
12	0x3da73b35	0.0816559
13	0x3dafd5f9	0.08585734
14	0x3df4be91	0.1195041
15	0xbc41c622	-0.011827024
16	0x3e52dbdc	0.20591682
17	0x3c457f76	0.012054315
18	0xbe0495e8	-0.1294781
19	0x3d4e2fea	0.050338663
20	0xbde0e645	-0.109814204
21	0xbdcbc88d	-0.099503614
22	0xbdc398e9	-0.0955065
23	0x3e17aba1	0.14811565
24	0xbe5483ad	-0.20753355
25	0xbe4783f3	-0.19483928
26	0xbfad7eec	-1.3554358
27	0xbed47c99	-0.4150131
28	0x4000ba3b	2.0113666
29	0xc03c99b6	-2.9468818
30	0x3daca65b	0.08430167
31	0xbf9e0df4	-1.2348008
32	0x3e8a59a4	0.27021515
33	0x3f0a3903	0.5399324
34	0xbe169644	-0.1470576
35	0x400c790b	2.1948879
36	0xbd8306a2	-0.063977495
37	0x3ed94de9	0.42442253
38	0xbcda85fe	-0.02667522
39	0xbd7fabcc	-0.062419698
40	0x3c81fe39	0.015868293
41	0xbe018fe3	-0.12652545
42	0x3e2db462	0.16963342
43	0x3e426bd8	0.18986452
44	0x3de1f40c	0.11032876
45	0xbdf851d7	-0.12124985
46	0x3e4eec24	0.20207268
47	0x3de2762f	0.11057698
48	0x3e2303d1	0.15919425
49	0xbe57d712	-0.21078137
50	0xbeab9a50	-0.3351617
51	0xbd3d41d4	-0.046205357
52	0x3e612541	0.21986867
53	0xbe1b4a0e	-0.15164968
54	0xc0aabc2f	-5.3354716
55	0xbefa6025	-0.48901477
56	0x3e64a86f	0.22329877
57	0xbe771327	-0.241284
58	0x3e921f37	0.2853944
59	0x3f1aee88	0.6052022
60	0x3e6e5e6d	0.23278208
61	0x3e888ba8	0.2666905
62	0xbdbd4f2b	-0.09243616
63	0x3e9b6ca6	0.3035633
64	0x3e99c15c	0.30030334
65	0xbf87a4a7	-1.0597123
66	0x3ede69f3	0.43440208
67	0xbdfb1b1d	-0.12261031
68	0xc00a162d	-2.1576035
69	0xbebfb7b0	-0.3744483
70	0x3d79e9b9	0.06101391
71	0xbcc27809	-0.023738878
72	0x3a18ecbf	0.0005833618
73	0xbf5dcad1	-0.866376
74	0xbf6a7d4b	-0.9159743
75	0xbee78881	-0.45221332
76	0xbf36eb1d	-0.71452504
77	0xbf067014	-0.5251477
78	0xbdf635bc	-0.12021968
79	0x3eb60edb	0.3555821
80	0xbf5b17ab	-0.8558299
81	0xc01a919c	-2.4151373
82	0x3eac6013	0.3366705
83	0xbe659feb	-0.22424285
84	0x3eebab49	0.46029118
85	0x3eea9eed	0.45824376
86	0xbfbcae1d	-1.4740635
87	0x3eec3b51	0.46139005
88	0xbfdc946d	-1.7232796
89	0x3edfcce0	0.43710995
90	0xbfc97bd0	-1.574091
91	0xbfd3fd7f	-1.6561736
92	0x3eb052d1	0.34438184
93	0x3f73a2f6	0.95170534
94	0xc0058bbb	-2.0866535
95	0xbf1c68c3	-0.61097354
96	0xbf45a9a9	-0.77212006
97	0xbeeb3a26	-0.459428
98	0xbe4b3ecc	-0.19848174
99	0xbe7eb2b1	-0.24872853
100	0xbf3f5454	-0.7473805
101	0x3ba26d22	0.0049568573
102	0xbe0edb0a	-0.13950744
103	0xbe3a0cbe	-0.18168923
104	0x403b5d03	2.927552
105	0xbe5321a7	-0.20618306
106	0xbff225c8	-1.891778
107	0xbf19b6b2	-0.60044396
108	0xbf912e50	-1.1342258
109	0xbf0c8d27	-0.5490288
110	0x3f12a684	0.5728533
111	0xbd02a248	-0.031893045
112	0xbe3a5669	-0.18197025
113	0xbf637619	-0.8885208
114	0xbec6b1da	-0.38807565
115	0xbf2a889d	-0.66614705
116	0xbe657202	-0.22406772
117	0xbe79e744	-0.24404627
118	0xbdf4bdd2	-0.11950268
119	0xbe2a0699	-0.1660408
120	0x3a497c76	0.00076860876
121	0xbdd35c06	-0.103202865
122	0xbc9d718e	-0.019219186
123	0xbe407385	-0.18794067
124	0xbe42f0d1	-0.19037177
125	0xbe25b09d	-0.16180654
126	0xbdc26ded	-0.09493623
127	0xbe602931	-0.21890713
128	0x3e6e2182	0.2325497
129	0xbd6175d7	-0.05504402
130	0x3e4c964d	0.1997921
131	0x3d22a931	0.039712135
132	0xbe44b73a	-0.1921052
133	0x3e17e1cf	0.14832233
134	0xbd9c492c	-0.07631144
135	0xbdd9bbf3	-0.106315516
136	0xbe6bbed4	-0.23022014
137	0xbe6dbb33	-0.23215942
138	0x3d15299b	0.03641663
139	0xbcba4f05	-0.022742758
140	0x3d838d34	0.06423417
141	0xbe8b875a	-0.27251703
142	0x3e26e366	0.16297683
143	0x400f0736	2.2348151
144	0xbe972903	-0.29523477
145	0x40314588	2.7698689
146	0xc00b67b9	-2.1782057
147	0x3e204b23	0.15653662
148	0x3e218e15	0.15776856
149	0xbe3d3b5d	-0.18479677
150	0x3ebd3e88	0.3696177
151	0x3e5a425e	0.2131438
152	0x3f1b231f	0.60600466
153	0xbe167537	-0.14693151
154	0x3e0ea41a	0.13929787
155	0x3e03f880	0.12887764
156	0x3f4ecc97	0.8078093
157	0xbf024c33	-0.5089752
158	0x408a2d3f	4.318023
159	0xbfc4e1bd	-1.538139
160	0xbc4ad8f4	-0.012380827
161	0xbdaaefd7	-0.08346527
162	0x3d122371	0.03567833
163	0x40a0c89c	5.0244884
164	0x3f792040	0.97314835
165	0x3f63db89	0.8900686
166	0xbe239971	-0.15976502
167	0x3ea6795f	0.32514474
168	0x3f6b2639	0.918552
169	0xbeb2c434	-0.34915316
170	0xbe9de1ba	-0.30836278
171	0x3e2eb4d9	0.17061175
172	0x3e698862	0.22805932
173	0xbdccfee3	-0.10009553
174	0xbe220c07	-0.158249
175	0xbdc28313	-0.09497657
176	0xbe120b5a	-0.14262143
177	0x3dea168f	0.11430084
178	0x3ea533f1	0.3226619
179	0xbeb19496	-0.34683675
180	0xbd1328fe	-0.035927765
181	0x3e227916	0.15866503
182	0x3fc25e72	1.5185072
183	0xbe996885	-0.29962555
184	0x3d58086d	0.05274241
185	0xbdc33659	-0.0953185
186	0xbb6e70db	-0.0036383185
187	0xbbef7181	-0.007307232
188	0xbdcaf6c3	-0.09910347
189	0x4014d5a3	2.3255394
190	0xbf8e6375	-1.1124102
191	0x3f943a68	1.1580324
192	0xbe2d8aa7	-0.16947423
193	0x3ec998fa	0.39374524
194	0xbf8ba16f	-1.0908641
195	0xbd7e5a48	-0.062097818
196	0x3b849e26	0.004047173
197	0xbc87a904	-0.016560085
198	0x3d888e86	0.06667809
199	0x3d9f2d25	0.077722825
200	0xbe80f9b5	-0.2519051
201	0xbdd19e45	-0.10235266
202	0x3e6f2b95	0.23356469
203	0x3ddd45b5	0.10804311
204	0xbc620341	-0.013794721
205	0xbe2b3aaa	-0.16721597
206	0xbe2dc1b2	-0.1696842
207	0xbe7e6753	-0.24844103
208	0xbdb926a1	-0.09040571
209	0x3dbfd203	0.093662284
210	0x3e3516b4	0.17684442
211	0x3e032003	0.1280518
212	0xbe7b0bbd	-0.24516197
213	0xbe2aca75	-0.16678794
214	0xbd3348a8	-0.043770462
215	0x3e895de5	0.26829448
216	0x3d2455ad	0.04012077
217	0xbd931947	-0.07182556
218	0x3deafee2	0.11474396
219	0xbdd8587e	-0.105637535
220	0xbe37d327	-0.17951642
221	0x4089aa42	4.3020334
222	0xbd3116f2	-0.043234773
223	0xbfb3ac4c	-1.4036956
224	0xbf76d8fd	-0.9642485
225	0x3dcf4ad4	0.10121694
226	0x3db84891	0.08998216
227	0x3e00f599	0.12593688
228	0xbe96a704	-0.29424298
229	0xbeb80249	-0.35939243
230	0xbfd39f03	-1.6532902
231	0x3db3b26f	0.08774268
232	0xbe96909d	-0.29407206
233	0x3e174573	0.14772587
234	0x3e610dcb	0.21977918
235	0xbb81d9fa	-0.0039627524
236	0x3c4608fa	0.012087101
237	0xbe65adb1	-0.2242954
238	0xbe735431	-0.23762585
239	0xbe84d292	-0.25941902
240	0x3d236904	0.039895073
241	0xbd80d7e2	-0.062911764
242	0xbc155a87	-0.009115822
243	0xbdb3499d	-0.08754275
244	0xbd6b15f7	-0.057393994
245	0xbe872509	-0.26395443
246	0xbe09c082	-0.13452342
247	0x3dbc6a83	0.09200003
248	0xbda8cfb9	-0.08242745
249	0x3e2f5459	0.1712202
250	0xbdb6393b	-0.088976346
251	0xbe50567e	-0.20345494
252	0xbd487070	-0.048935354
253	0xbe09abe2	-0.13444474
254	0xbdadc75f	-0.08485293
255	0xbe872fbd	-0.2640361

model.0.bias f4 [256]
0	0x3c1f5458	0.009724699
1	0xbe8b699d	-0.27229014
2	0x3dfe3e87	0.1241427
3	0xbe8d33cb	-0.27578577
4	0xbe8f1759	-0.279475
5	0xbd6ab6a3	-0.057303082
6	0xbee92baf	-0.4554114
7	0x3ddc8e26	0.107693
8	0x3d06910b	0.032853168
9	0xbe3a907a	-0.18219176
10	0xbe31eee1	-0.17376281
11	0xbdbed176	-0.09317295
12	0xbec9e4f2	-0.39432484
13	0xbd47bb2f	-0.048762497
14	0xbdd081f5	-0.10181037
15	0xbdd1f4a1	-0.102517374
16	0xbe1d9dc0	-0.15392208
17	0xbce0b961	-0.027432146
18	0xbe336923	-0.17520575
19	0xbe3d0be9	-0.18461575
20	0xbe946f9a	-0.28991395
21	0xbe0c398f	-0.13693832
22	0x3e4f8f3f	0.20269488
23	0xbceaa61a	-0.028643657
24	0x3b04de15	0.0020273973
25	0x3d84fd47	0.06493621
26	0xbe3f763f	-0.18697451
27	0x3e091379	0.13386334
28	0xbe3a29e0	-0.18180037
29	0x3d55bbfc	0.05218123
30	0x3e153183	0.14569668
31	0xbe0dfa27	-0.13864957
32	0xbe1295ec	-0.14315003
33	0xbefa85dd	-0.48930255
34	0x3d845ff9	0.06463618
35	0x3e471eca	0.19445339
36	0xbe970ef1	-0.29503587
37	0x3c25f1d7	0.01012846
38	0xbe6289a6	-0.22122821
39	0xbeb8f696	-0.3612563
40	0x3cc37b5b	0.023862531
41	0xbe5a021f	-0.21289872
42	0x3da0a450	0.0784384
43	0xbd62253a	-0.055211283
44	0xbe0e6053	-0.13903932
45	0xbeed57bc	-0.46356
46	0x3c0296a1	0.007970483
47	0x3d35db14	0.044398382
48	0xbe29fa2d	-0.1659934
49	0x3d5efc76	0.054439984
50	0x3e166017	0.14685093
51	0xbec2f5c5	-0.38078132
52	0xbd1a5b74	-0.037684873
53	0xbe818178	-0.2529409
54	0x3dceed6e	0.1010388
55	0x3d489488	0.048969775
56	0xbe91ec6f	-0.28500697
57	0xbe93ab20	-0.28841496
58	0xbd96564e	-0.0734068
59	0x3dbca45a	0.09211035
60	0xbe698f3d	-0.22808547
61	0xbea229c2	-0.31672484
62	0xbbd7a667	-0.006581116
63	0x3e0d14ce	0.13777468
64	0x3d7a5d00	0.061123848
65	0xbeeebf03	-0.46630105
66	0x3d834f0d	0.06411562
67	0xbe21f1bc	-0.1581487
68	0xbd2d6f6d	-0.042342592
69	0xbeb5cdee	-0.35508674
70	0x3e2e6cfb	0.1703376
71	0x3e504bc3	0.20341401
72	0xbe2aa255	-0.16663487
73	0xbea62b92	-0.32455117
74	0xbd374f0a	-0.044753112
75	0xbea4229f	-0.32057664
76	0x3d478a50	0.04871589
77	0x3d850064	0.06494215
78	0xbdd1c3c0	-0.102424145
79	0xbdf698fe	-0.120409
80	0xbdd07832	-0.101791754
81	0xbe608d01	-0.21928789
82	0xbebdafcd	-0.37048188
83	0x3e2128a6	0.15738162
84	0xbea7c313	-0.32766017
85	0xbe6ba7d1	-0.23013236
86	0x3d0d9ffb	0.034576397
87	0x3d83c64a	0.06434305
88	0x3d2a526d	0.041582514
89	0xbe4350b8	-0.1907376
90	0xbdf132f6	-0.11777298
91	0xbe1a42d5	-0.15064557
92	0x3e35c7a8	0.17751944
93	0xbdd49081	-0.103791244
94	0xbde70c44	-0.11281636
95	0x3ccadd72	0.024763796
96	0xbd90aa0e	-0.07063685
97	0xbe92f176	-0.28699845
98	0xbb9fa295	-0.004871676
99	0xbef3b932	-0.4760223
100	0xbe008102	-0.12549213
101	0xbe90a215	-0.2824866
102	0x3ca8edaa	0.02062114
103	0xbe698166	-0.22803268
104	0xbe5642a2	-0.20923856
105	0xbe07c023	-0.13256888
106	0x3e78d6ad	0.24300642
107	0xbe86feec	-0.26366365
108	0x3e36df07	0.17858516
109	0xbe6c594a	-0.23080936
110	0xbeaf3736	-0.3422181
111	0x3c914356	0.017732304
112	0x3d3ed9eb	0.04659454
113	0xbe804f61	-0.2506056
114	0xbe9732aa	-0.2953084
115	0xbec855d1	-0.39127973
116	0xbd863d83	-0.06554701
117	0x3e12dfad	0.14343138
118	0x3df7234a	0.12067278
119	0xbecfb690	-0.40568972
120	0xbe2e3536	-0.17012486
121	0xbe887208	-0.266495
122	0x3cb12cad	0.021627748
123	0xbe6293b0	-0.22126651
124	0xbe390d32	-0.1807144
125	0xbe971f5b	-0.2951611
126	0xbe444ef4	-0.19170743
127	0xbdc31ab9	-0.09526581
128	0xbd85b44c	-0.065285295
129	0xbdf48378	-0.11939138
130	0xbd857568	-0.06516534
131	0xbe811778	-0.25213218
132	0xbed97386	-0.4247095
133	0xbd7eaf31	-0.062178794
134	0xbc15b34e	-0.009136988
135	0x3d994634	0.07484093
136	0x3e02c5f9	0.12770833
137	0xbe83eb55	-0.25765482
138	0xbeb22e70	-0.34801054
139	0xbe13dccb	-0.14439695
140	0xbdc8d2d0	-0.09805834
141	0x3db8d816	0.0902559
142	0x3e5d0682	0.21584514
143	0x3d78016c	0.06054823
144	0xbe67fab9	-0.22654237
145	0x3c07649e	0.008263735
146	0x3e5a42f2	0.213146
147	0x3de773eb	0.113014065
148	0xbe22f92a	-0.15915361
149	0x3cabbc8a	0.020963926
150	0xbe891d09	-0.26779965
151	0xbdd4def5	-0.10394088
152	0xbcdd89f5	-0.027043322
153	0xbdf66513	-0.12030997
154	0x3e0765d9	0.13222446
155	0xbe708b9c	-0.23490757
156	0x3d5e3adc	0.05425535
157	0x3e502002	0.2032471
158	0x3cd07df8	0.025450692
159	0xbe07d542	-0.13264945
160	0xbe815dac	-0.25266778
161	0xbe0bde7a	-0.13659087
162	0xbe9645aa	-0.29350024
163	0xbe538f31	-0.20660092
164	0x3c95be69	0.018279271
165	0xbdf08023	-0.1174319
166	0xbe08a06f	-0.1334245
167	0xbe95b583	-0.29240045
168	0xbe0abe39	-0.13549127
169	0xbe340c1c	-0.17582744
170	0xbee6855e	-0.45023626
171	0x3d86fbb6	0.06590979
172	0xbeb1435a	-0.34621698
173	0xbeb0c58b	-0.34525713
174	0xbe889b1a	-0.26680833
175	0xbca0e1d5	-0.019638935
176	0xbe618c3c	-0.22026151
177	0xbd7b6977	-0.061379876
178	0xbe56a6e7	-0.20962106
179	0xbe62ecd1	-0.22160651
180	0xbd9e0ea6	-0.07717638
181	0xbe10aca0	-0.14128351
182	0xbe0efe76	-0.13964257
183	0xbe1c3cff	-0.15257643
184	0x3e1232c1	0.14277174
185	0xbd5e6ce8	-0.05430308
186	0x3dfcdc01	0.1234665
187	0xbe95150a	-0.29117614
188	0xbe677bfe	-0.22605893
189	0xbee691c5	-0.45033088
190	0xbe3364aa	-0.17518869
191	0xbf03540f	-0.5130014
192	0xbeba75da	-0.3641804
193	0x3d5f97e9	0.054588232
194	0xbf47130b	-0.7776343
195	0xbeb937ad	-0.3617529
196	0xbebb20cd	-0.36548463
197	0xbe5bccf8	-0.21464908
198	0x3e49ad4f	0.19695018
199	0xbdd7541a	-0.10514088
200	0xbdaec069	-0.08532793
201	0xbe354b7a	-0.17704573
202	0xbef1d8c5	-0.47235695
203	0xbe06583d	-0.13119598
204	0x3dc18a11	0.09450162
205	0x3d83ffe6	0.06445293
206	0x3e2c66f5	0.1683615
207	0x3dda8bf2	0.10671224
208	0xbe5763d0	-0.21034169
209	0xbedd23f5	-0.43191496
210	0x3e817620	0.25285435
211	0xbe51e953	-0.20499162
212	0x3e279a4b	0.16367452
213	0xbd855556	-0.06510417
214	0x3e6c0c6e	0.23051617
215	0x3dc553f7	0.09635156
216	0xbddec5aa	-0.10877545
217	0xbe6ba839	-0.2301339
218	0x38291299	4.031006e-05
219	0xbe46a542	-0.19398978
220	0xbd9c3ab8	-0.07628387
221	0xbda8147e	-0.082070336
222	0xbd281078	-0.04103133
223	0xbdadd957	-0.0848872
224	0xbeb18997	-0.34675285
225	0xbe6e5653	-0.23275118
226	0xbec2bccb	-0.38034663
227	0x3d0395a2	0.032125123
228	0xbe69d49d	-0.22835012
229	0x3c76c3f5	0.015061368
230	0xbe506389	-0.2035047
231	0xbe990f40	-0.29894447
232	0x3dc04684	0.0938845
233	0x3ccbb8a8	0.024868324
234	0xbe93e61e	-0.28886503
235	0x3bf0b11a	0.007345331
236	0xbe4d7d60	-0.20067358
237	0xbefe4469	-0.49661568
238	0xbe799e27	-0.24376737
239	0x3da3bdea	0.079952076
240	0x3d95aed7	0.07308739
241	0x3e26cdcc	0.16289443
242	0xbe46b945	-0.19406612
243	0xbd37d1cf	-0.044877823
244	0xbc1db5a7	-0.009625829
245	0xbe88bdba	-0.2670725
246	0xbef07a7c	-0.46968448
247	0xbdab45fc	-0.08362958
248	0xbe7843ed	-0.24244662
249	0xbda098e3	-0.07841661
250	0xbe6a2d04	-0.22868735
251	0x3d3c5cd3	0.04598696
252	0xbdbd73ba	-0.09250589
253	0xbe952ca9	-0.29135635
254	0x3d2f4238	0.04278776
255	0x3e647e28	0.2231375

model.2.weight f4 [256, 256]
0	0xbe27012e	-0.16309044
1	0xbd806846	-0.062698886
2	0x3ecab7b9	0.39593294
3	0xbdba16fc	-0.09086415
4	0x3efcde14	0.49388182
5	0x3f1eac6c	0.61981845
6	0xbf7dff0a	-0.99217284
7	0x3f1a7eb9	0.60349613
8	0x3f5609d8	0.8360877
9	0x3cda3600	0.026637077
10	0x3c0e0f20	0.008670598
11	0x3eb58733	0.3545471
12	0xc02678cb	-2.6011226
13	0xbd302318	-0.043002218
14	0x3f00654f	0.50154585
15	0xbd49a7e0	-0.049232364
16	0x3d3a8d08	0.045544654
17	0xbede48e0	-0.43414974
18	0x3da79b4f	0.0818392
19	0xbd0d1e32	-0.034452625
20	0xbf12ef1b	-0.57396096
21	0xbed70696	-0.41997212
22	0x3efc0b6a	0.49227458
23	0xbe08f699	-0.1337532
24	0x3f391810	0.7230234
25	0xbfa49fb7	-1.2861241
26	0xbcc139c8	-0.023587123
27	0x3f416635	0.7554658
28	0xbe2cbcbf	-0.16868876
29	0xbea11298	-0.31459498
30	0xbeebdf20	-0.46068668
31	0x3ee7216b	0.45142683
32	0xbd163a8c	-0.03667693
33	0xbeaf4c0c	-0.34237707
34	0x3ecba1ac	0.39771783
35	0xbf4a56a8	-0.79038477
36	0x3ba79155	0.0051137605
37	0xc01e8b10	-2.4772377
38	0x3dec88dd	0.11549542
39	0x3e0301d7	0.1279367
40	0x3f507be3	0.81439036
41	0xbf75343b	-0.9578282
42	0xbda74829	-0.0816806
43	0xbec91352	-0.39272553
44	0xbf81b346	-1.0132835
45	0xbf1c6486	-0.61090887
46	0x3e368bcf	0.1782677
47	0xbe36aa48	-0.17838395
48	0x3c891378	0.016732916
49	0x3f284015	0.6572278
50	0x3dbf603a	0.09344526
51	0xc02cd489	-2.700472
52	0xbd7cd6d5	-0.061728317
53	0xbf859a9b	-1.0437807
54	0xbe3f8032	-0.18701246
55	0xbde9f1f8	-0.11423105
56	0xbeec75a3	-0.461835
57	0x3e865f64	0.26244652
58	0xbf0a1eda	-0.53953326
59	0xbf15076f	-0.5821447
60	0xbbe82830	-0.007084869
61	0x3d6975d4	0.056997135
62	0x3d448bc7	0.047984865
63	0x3f1ea7df	0.619749
64	0x3ec4167c	0.38298404
65	0x3fe448d4	1.7834725
66	0x3f378342	0.7168466
67	0xbf297bb3	-0.66204375
68	0xbe9326c5	-0.28740516
69	0xbef15eab	-0.47142538
70	0x3ed5e013	0.41772518
71	0x3eafaa9d	0.34309855
72	0xbd2a7bbc	-0.04162191
73	0xbf1b37e4	-0.6063216
74	0xbe74622a	-0.23865572
75	0xbeac13f7	-0.33608982
76	0xbf5e35c3	-0.86800784
77	0x3fea498e	1.8303697
78	0xbf67e12b	-0.90577954
79	0xbc23e7a0	-0.010003954
80	0x3c61839e	0.01376429
81	0x3c44c4f8	0.012009852
82	0x3f325306	0.69657934
83	0x3f47770a	0.77916014
84	0x3f7692c8	0.9631772
85	0x3d25da3e	0.040491335
86	0x3f8f6178	1.120162
87	0xbe3d8f69	-0.18511738
88	0xbfab7e8a	-1.3397992
89	0xbe321eb2	-0.17394522
90	0xbee94c37	-0.4556596
91	0x3c9f078a	0.019412775
92	0x3e16f870	0.14743209
93	0x3eaa3363	0.3324233
94	0x3e7be2e5	0.24598272
95	0x3f200748	0.6251111
96	0x3eebe9cf	0.4607682
97	0xbb4e9d01	-0.0031526687
98	0x3ef93c08	0.48678613
99	0xbea0725b	-0.31337246
100	0xbf80bd2c	-1.0057731
101	0xbb0a5e66	-0.0021113395
102	0xbf851b0a	-1.0398877
103	0x3d4e5ce2	0.05038155
104	0xc0159901	-2.3374636
105	0x3eef0768	0.46685338
106	0xbe12366f	-0.14278577
107	0x3c97a95b	0.018513372
108	0x3f32e4b9	0.69880253
109	0xbd3dd7ed	-0.0463485
110	0x3ebd214f	0.36939475
111	0x3eb2d86a	0.34930736
112	0xbf6498a1	-0.89295393
113	0xbc9738b2	-0.018459652
114	0x3d4faa4f	0.05069953
115	0x3fc50734	1.5392823
116	0x3d0b10fc	0.033951744
117	0x3f75e021	0.9604512
118	0xbf3fc55e	-0.74910533
119	0xbf53c487	-0.8272175
120	0x3aaf9d80	0.0013398379
121	0xbdb82f97	-0.08993452
122	0x3f25c8a4	0.6475928
123	0xbd07d23f	-0.03315949
124	0xbe13efd8	-0.14446962
125	0xc0433a88	-3.0504475
126	0x3c16f088	0.009212621
127	0xbfc30b1b	-1.5237764
128	0x3d69ffa9	0.057128582
129	0xbef1eb46	-0.47249812
130	0x3cd9b703	0.026576525
131	0x40098aa5	2.1490872
132	0xbe715da5	-0.23570879
133	0xbf8e73f1	-1.1129133
134	0x3faf146b	1.3678106
135	0xbd487981	-0.048944
136	0x3e1098e5	0.14120825
137	0xbba06a2f	-0.0048954706
138	0x3de8a841	0.11360217
139	0x3c40e89e	0.01177421
140	0x3e4ba00c	0.19885272
141	0xbf4de873	-0.80432814
142	0x3e9042a0	0.2817583
143	0xbf294d8e	-0.66133964
144	0xbcfd146c	-0.030893527
145	0xbe25df38	-0.16198432
146	0x3f3e9c05	0.74456817
147	0xbdd11674	-0.10209361
148	0x3f1eca31	0.6202727
149	0x3d99dc32	0.07512702
150	0xbd1d645e	-0.038425796
151	0xbe8146fb	-0.25249466
152	0x3e70f55c	0.23531097
153	0xbc027960	-0.007963508
154	0x3f107dc9	0.5644193
155	0x3b1b3660	0.0023683533
156	0x3f2488af	0.6427106
157	0xbf56139c	-0.8362367
158	0xbf5f0c6f	-0.8712835
159	0x3f739c44	0.9516032
160	0xbfdbecd3	-1.7181648
161	0x3c15acb0	0.00913541
162	0xbf975b42	-1.1824725
163	0x3e580051	0.2109387
164	0x3e9b7bf6	0.30368012
165	0x3e528236	0.20557484
166	0x3efaf9dc	0.49018753
167	0xbcdec1ac	-0.02719196
168	0x3f41aba8	0.7565255
169	0xbf119f18	-0.5688338
170	0xc045d464	-3.0910883
171	0xbe9305b3	-0.28715286
172	0xbffedfd6	-1.9912059
173	0xbe3280b5	-0.1743191
174	0xbbd89fc8	-0.0066108443
175	0xbf1ef48c	-0.620919
176	0xbc94d990	-0.018170148
177	0x3ea3231f	0.31862733
178	0xc01f08ce	-2.4849124
179	0x3d0330d6	0.032028995
180	0x3f81858c	1.011888
181	0xbe22c172	-0.15894106
182	0x3cef59c2	0.029217605
183	0x3f1cb5c5	0.6121486
184	0x3f064c03	0.52459735
185	0x3f1db653	0.6160633
186	0x3ebdc9a7	0.3706791
187	0x3d524bb4	0.051341727
188	0xbc638b88	-0.013888247
189	0xbfa7d1bd	-1.3110882
190	0xbd96d116	-0.07364099
191	0xbf26c7a6	-0.6514839
192	0xbea065c3	-0.31327638
193	0x3ebdfdbf	0.37107655
194	0x3f88fb59	1.0701705
195	0xbf634352	-0.887746
196	0xbf30e5e7	-0.69100803
197	0x3deb931e	0.1150267
198	0x3c1418b7	0.009039096
199	0xbf3ea541	-0.7447091
200	0xbec33309	-0.38124874
201	0xbf3145fa	-0.692474
202	0xc09342e9	-4.6019177
203	0xbc766304	-0.015038256
204	0xbed1eea8	-0.41002393
205	0x3e801c51	0.25021604
206	0x3f613726	0.87974775
207	0xbf2fad67	-0.68623966
208	0x3d4e5853	0.0503772
209	0x3d9774da	0.073953345
210	0xbf096d23	-0.53682154
211	0xbdec23d4	-0.11530271
212	0xbf03c679	-0.5147472
213	0xbdb942e1	-0.09045959
214	0xbf2b7b91	-0.6698542
215	0xbbdc911b	-0.006731165
216	0x3c6b35e7	0.014356113
217	0xbd2168ba	-0.039406516
218	0xbf881644	-1.0631795
219	0xbd4cae2e	-0.0499708
220	0xbf52c995	-0.8233884
221	0xbf038406	-0.51373327
222	0xbe4fabeb	-0.20280425
223	0xbe5dcc6d	-0.21660013
224	0xbf7d0c54	-0.98846936
225	0x3ed5af55	0.4173533
226	0x3ef7eaf5	0.48421445
227	0x3e87f3be	0.26553148
228	0x3cd8f806	0.026485454
229	0x3e7b2a51	0.24527861
230	0xbf6a4392	-0.91509354
231	0xbed81f49	-0.4221137
232	0xbebbeeb0	-0.36705542
233	0xbea76b4a	-0.32699043
234	0x3d96ba78	0.07359785
235	0x3f1930af	0.5983991
236	0xbd07d814	-0.033165053
237	0x3f9fd89e	1.2487981
238	0xc01ea4bd	-2.4788048
239	0xbe3f08fa	-0.18655768
240	0xbe7c53ae	-0.24641296
241	0x3f4b802d	0.79492456
242	0xbcd9ddf4	-0.026595093
243	0x3e4144b7	0.18873869
244	0xbdbebd22	-0.09313418
245	0x3d167f25	0.03674235
246	0x3ef631d2	0.48084885
247	0xbe2b2484	-0.16713148
248	0x3d3b742e	0.045765094
249	0x3c581fa8	0.013191141
250	0xbe8203f2	-0.25393635
251	0xbe952865	-0.2913238
252	0xbdbc0175	-0.091799654
253	0x3b92f186	0.0044843582
254	0x3fc81dbf	1.5634078
255	0x3c7fc021	0.015609772

model.2.bias f4 [256]
0	0x3e01b673	0.12667255
1	0xbeb356d0	-0.3502717
2	0xbef3338e	-0.4750027
3	0xbd52f5c5	-0.051503915
4	0xbdc1856e	-0.09449278
5	0xbdf3b2aa	-0.11899312
6	0xbd9d9c9e	-0.07695888
7	0x3e7f2be8	0.24919093
8	0x3ae0c277	0.0017147799
9	0xbd854f6a	-0.06509288
10	0x3cabd45b	0.020975282
11	0x3dcafd82	0.09911634
12	0xbd5daea0	-0.054121614
13	0xbd4d2382	-0.05008269
14	0xbb3846e2	-0.0028118421
15	0xbd65556b	-0.055989664
16	0xbc156882	-0.009119155
17	0x3e173167	0.14764939
18	0xbc877574	-0.016535498
19	0xbdfefba1	-0.12450338
20	0xbd3b314e	-0.045701317
21	0xbb80e6aa	-0.0039337473
22	0xbe567500	-0.2094307
23	0xbd5668d8	-0.05234608
24	0xbd9d31ca	-0.07675512
25	0xbc231039	-0.009952598
26	0xbcf4c2f9	-0.029878126
27	0xbbad89dc	-0.005295975
28	0xbe097850	-0.13424802
29	0xbcbb5f0c	-0.02287247
30	0x3e4d4251	0.20044829
31	0xbee517c0	-0.44744682
32	0xbda9ca3e	-0.08290528
33	0xbd81550c	-0.063150495
34	0xbdf719c3	-0.120654605
35	0x3d986a5a	0.0744216
36	0xbd8b3924	-0.06798008
37	0x3d68caa7	0.05683389
38	0xbdacb43b	-0.08432814
39	0xbd377f5c	-0.044799194
40	0xbdee3ab2	-0.11632289
41	0xbc8eb7ac	-0.017421566
42	0xbda8ea7c	-0.08247849
43	0xbd2bc9e1	-0.041940574
44	0xbce832b1	-0.028344484
45	0x3e56efbe	0.20989892
46	0xbd9108c1	-0.07081748
47	0xbd12767c	-0.035757527
48	0x3b6c50ea	0.003605897
49	0x3e01e17d	0.12683673
50	0xbe94fdf2	-0.29099995
51	0xbda7112d	-0.08157573
52	0xbcf5818e	-0.029969003
53	0xbcdeb64a	-0.027186532
54	0xbda2f552	-0.079569474
55	0xbe72bfa7	-0.23705922
56	0xbd1d3064	-0.038376227
57	0xbd9b0bdf	-0.075706236
58	0xbeac6bbf	-0.33675954
59	0xbce1e6b9	-0.027575837
60	0xbe87126d	-0.26381245
61	0xbc8c83cc	-0.01715269
62	0xbe0de78e	-0.13857862
63	0xbd7449d4	-0.05964072
64	0xbdb6d2ab	-0.089269005
65	0xbd627849	-0.055290494
66	0xbbeed014	-0.0072879884
67	0x3c7b2d21	0.015330584
68	0xbd76c853	-0.060249638
69	0x3e639847	0.22226058
70	0x3e6c8507	0.23097621
71	0xbe7d3722	-0.24728063
72	0xbe3c387a	-0.18380919
73	0xbca628ff	-0.02028322
74	0xbda35e70	-0.07976997
75	0xbd62b039	-0.05534384
76	0xbcf43eb3	-0.029815054
77	0xbdc645aa	-0.09681256
78	0xbbf345a0	-0.0074240714
79	0xbc89f779	-0.016841637
80	0xbd5cc932	-0.053902812
81	0xbf386a3b	-0.72037095
82	0xbdc09824	-0.094040185
83	0xbedb6ace	-0.42854923
84	0x3e52b30e	0.20576116
85	0xbed10e39	-0.40831164
86	0xbc460f59	-0.01208862
87	0x3b00fa7e	0.0019680555
88	0x3e3a05e9	0.18166317
89	0xbcb091d8	-0.021553919
90	0x3dc56713	0.096388005
91	0xbf436934	-0.763324
92	0xbe782844	-0.2423411
93	0xbd3746e1	-0.04474533
94	0x3dba42ae	0.090947494
95	0xbc6b40d0	-0.014358714
96	0x3dcf893a	0.10133596
97	0xbd59b207	-0.053148296
98	0x3bc8bbce	0.0061259037
99	0xbd4386ee	-0.0477361
100	0xbc5314eb	-0.012883405
101	0xbd5b5537	-0.053548064
102	0xbd80b9c9	-0.06285436
103	0x3eac9714	0.33709013
104	0xbbc95f67	-0.006145406
105	0xbd0fea66	-0.03513565
106	0xbdc85f35	-0.09783784
107	0xbd9ac99d	-0.07557986
108	0xbd91bebd	-0.071164586
109	0xbda58118	-0.08081263
110	0xbd134e5c	-0.0359634
111	0xbde75e70	-0.112973094
112	0x3d6fb960	0.058526397
113	0xbd90ab7c	-0.07063958
114	0xbab6bdb6	-0.0013942036
115	0xbd5acf26	-0.05342021
116	0x3daf72ff	0.08566856
117	0xbe220856	-0.15823492
118	0xbdd3f9a1	-0.10350347
119	0x3e097b9a	0.13426057
120	0xbcdfe51b	-0.027330926
121	0xbc000b78	-0.007815234
122	0xbcc79d57	-0.024367018
123	0xbd074820	-0.033027768
124	0xbe8c5ab5	-0.27412954
125	0xbc0212f2	-0.007939087
126	0xbdc9f223	-0.09860637
127	0xbd94f40f	-0.07273113
128	0xbcfabf60	-0.030608833
129	0xbf2950ba	-0.66138804
130	0x3d776f0a	0.06040863
131	0x3dd221ba	0.10260339
132	0xbd502621	-0.050817613
133	0x3be6e636	0.0070464863
134	0xbcc62213	-0.02418617
135	0xbd96ba4a	-0.073597506
136	0xbe0a8b57	-0.13529716
137	0xbe937244	-0.28798115
138	0xbc15e04b	-0.009147714
139	0x3e59f599	0.21285094
140	0xbe450238	-0.19239128
141	0xbe505895	-0.20346291
142	0xbe6fbdb2	-0.23412207
143	0xbd3b69cc	-0.045755193
144	0xbdf6133d	-0.12015388
145	0xbd99b42c	-0.07505068
146	0xbdaa2e5e	-0.08309625
147	0xbd146f99	-0.03623924
148	0xbba2b7df	-0.004965767
149	0xbc92feb3	-0.017943716
150	0xbd9bd529	-0.076090164
151	0xbd1a59b9	-0.037683222
152	0x3ea48af8	0.32137275
153	0xbdc495e8	-0.09598905
154	0x3dcc3f69	0.09973032
155	0xbbaa3858	-0.005194705
156	0xbcdb2382	-0.02675033
157	0xbdd7fe92	-0.10546602
158	0xbe098d3a	-0.1343278
159	0xbb1ef0b4	-0.0024252357
160	0xbdd11a08	-0.10210043
161	0xbe03f850	-0.12887692
162	0x3e16cb1d	0.14725919
163	0x3bef6a25	0.0073063546
164	0xbb7215b5	-0.0036939208
165	0xbd10e269	-0.03537217
166	0xbca88cdc	-0.02057498
167	0xbd10c9f0	-0.035348833
168	0xbedc10c5	-0.42981544
169	0x3dd9f585	0.10642532
170	0xbd9bbc6a	-0.076042965
171	0x3c63b45b	0.013897981
172	0xbe00d23f	-0.12580203
173	0x3def4578	0.11683172
174	0xbe923ebc	-0.28563488
175	0xbe901962	-0.28144366
176	0xbd1fc9c0	-0.039010763
177	0xbd698c3a	-0.057018496
178	0xbd82894c	-0.063738436
179	0xbcc3a55c	-0.02388256
180	0x3db0b660	0.08628535
181	0x3c1ebb2c	0.00968818
182	0xbcd59e70	-0.026076525
183	0x3e27142d	0.1631629
184	0xbea7d9a3	-0.3278323
185	0xbd616265	-0.055025477
186	0xbd8bae2a	-0.068203285
187	0x3e6641d6	0.22486052
188	0x3d77b113	0.060471606
189	0xbdbd8f6d	-0.09255872
190	0xbd5b26fa	-0.053503968
191	0xbd836ef2	-0.064176455
192	0xbe9edafd	-0.3102645
193	0x3c1d92d6	0.009617528
194	0xbcd00564	-0.025393195
195	0xbde4d3e7	-0.1117323
196	0x3e362344	0.1778689
197	0xbd10f007	-0.035385158
198	0xbd7b478c	-0.06134753
199	0xbda28283	-0.079350494
200	0xbd5795d6	-0.05263313
201	0xbdee7116	-0.11642663
202	0x3e378010	0.17919946
203	0xbe59f65d	-0.21285386
204	0xbd8f5fb4	-0.07000676
205	0xbdeffb96	-0.11717908
206	0xbd91d1e7	-0.07120114
207	0xbc720836	-0.014772465
208	0xbcec36cf	-0.028834729
209	0xbef2f299	-0.47450712
210	0xbce90c8e	-0.02844837
211	0x3d876fe2	0.06613137
212	0x3d593dfe	0.053037636
213	0xbee58351	-0.4482675
214	0xbe93fe2e	-0.2890486
215	0xbd96909a	-0.07351799
216	0xbd8cec77	-0.068810396
217	0x3e8f6263	0.2800475
218	0xbc900b3d	-0.017583484
219	0x3e91a3fe	0.2844543
220	0xbd7faaa4	-0.062418595
221	0x3d822615	0.0635492
222	0xbd7e3372	-0.06206078
223	0x3e443a3c	0.1916284
224	0xbc1934ce	-0.0093509685
225	0xbc9a94f7	-0.01886986
226	0xbea0ac6d	-0.3138155
227	0xbd850439	-0.06494946
228	0xbc5589d8	-0.013033353
229	0xbd922a5f	-0.07136988
230	0xbf0d0715	-0.5508893
231	0xbdcac808	-0.09901434
232	0x3e21104e	0.15728876
233	0xbc3e0ab1	-0.011599229
234	0x3e877488	0.26456094
235	0x3c8f6498	0.017504022
236	0x3e8904cc	0.26761472
237	0xbc47365d	-0.012158957
238	0xbd363602	-0.0444851
239	0xbdaaefa2	-0.083464876
240	0x3df28035	0.1184086
241	0xbf193ad6	-0.598554
242	0xbe43be0b	-0.19115464
243	0xbceeb973	-0.029141163
244	0xbf2b72d5	-0.66972095
245	0xbe10ed50	-0.14153028
246	0xbd8a024b	-0.067387186
247	0xbd749f39	-0.05972216
248	0xbdaecbdf	-0.08534979
249	0xbd22479a	-0.039619066
250	0xbdb6eeba	-0.08932252
251	0x3b2c4866	0.002628827
252	0x3ec98b2b	0.3936399
253	0x3d38f0ae	0.045151405
254	0xbf5676e8	-0.83775187
255	0x3d168808	0.036750823

model.4.weight f4 [256, 256]
0	0xbd48d123	-0.049027573
1	0xbe8cdec5	-0.2751371
2	0xbfaf0ee5	-1.367642
3	0xbfbddfc4	-1.4833913
4	0x3ef07681	0.4696541
5	0xbe3f4e92	-0.18682316
6	0x3e8b8a2e	0.2725386
7	0x3f3c5688	0.73569536
8	0xba9d439b	-0.0011998297
9	0xbb433340	-0.0029785186
10	0x3d46f552	0.0485738
11	0xbe2b75e7	-0.16744195
12	0x3d5b614c	0.053559586
13	0xbd3f778b	-0.046744864
14	0x3c8f1c15	0.017469445
15	0x3e183880	0.14865303
16	0x3d6313b2	0.055438705
17	0x3ebff762	0.37493426
18	0x3f6bec60	0.92157555
19	0xbd54f7e6	-0.051994227
20	0x3cf4a7c3	0.029865151
21	0x3aca0f9b	0.0015416028
22	0x3eb22d00	0.34799957
23	0x3cc7293d	0.024311656
24	0x3d7adfd4	0.061248615
25	0x3d71f086	0.05906727
26	0x3da90c3b	0.08254286
27	0x3db33006	0.08749394
28	0x3f51b251	0.81912714
29	0x3c8cacca	0.017172236
30	0xbebc3e1d	-0.3676614
31	0x3f530203	0.82424945
32	0x3d63f180	0.055650234
33	0x3d020114	0.03173931
34	0xc0411612	-3.016972
35	0x3f1477ec	0.57995486
36	0x3d62b8b5	0.05535193
37	0xbfd51303	-1.6646427
38	0xbd4e6d5a	-0.050397255
39	0xbec23d99	-0.3793762
40	0xbd145884	-0.036217228
41	0xbce8c341	-0.028413417
42	0x3e5b2d90	0.214041
43	0x3d4df443	0.050281774
44	0x3a25bd86	0.00063224917
45	0x3edb7a9d	0.42866984
46	0x3e9c26d6	0.3049838
47	0x3d9bfb53	0.07616296
48	0xbf18f317	-0.59745926
49	0x3cddae78	0.027060732
50	0xbf12e048	-0.57373476
51	0x3ca425e7	0.020037604
52	0xbd0f7075	-0.035019357
53	0x3bc38929	0.0059672785
54	0xba790680	-0.0009499565
55	0xbf1d929d	-0.6155184
56	0x3e8ac561	0.27103713
57	0x3c4580e5	0.012054657
58	0xbf23f82c	-0.64050555
59	0xbd24485b	-0.040108066
60	0x3f9ec724	1.2404523
61	0xbd768041	-0.060180906
62	0xbcbc2a83	-0.02296949
63	0x3ce4083a	0.027835954
64	0xbd13b940	-0.03606534
65	0x3d3ad9e4	0.045617953
66	0xbccf43ae	-0.025300827
67	0xbc7d7f26	-0.015472209
68	0xbc31443b	-0.01081949
69	0xbf800f8a	-1.0004742
70	0x3f0250d9	0.50904614
71	0xbf0c2718	-0.5474715
72	0xbf06787a	-0.5252758
73	0xbf283262	-0.6570188
74	0x3d17cac6	0.037058614
75	0xbda872b8	-0.08225006
76	0x3c95ca05	0.018284807
77	0xbbad226b	-0.005283644
78	0xbd949acb	-0.07256087
79	0xbe878a68	-0.26472783
80	0x3d9358b5	0.07194654
81	0xc0afdf3e	-5.4960012
82	0xbca9a08c	-0.020706438
83	0x3f1287fa	0.57238734
84	0xbf3199a1	-0.69375044
85	0xbeac29f1	-0.3362575
86	0x3d62fc08	0.055416137
87	0xbcaecfe6	-0.021339368
88	0xbf7de236	-0.99173295
89	0x3c16b10c	0.009197485
90	0x3e511687	0.2041875
91	0xbfcbd29f	-1.5923651
92	0xbd9ba38f	-0.07599556
93	0xbd3e5652	-0.04646904
94	0xbe8943f0	-0.26809645
95	0xbc4b30e2	-0.012401791
96	0x3e91d0f5	0.28479734
97	0x3cfa6481	0.030565502
98	0xbc5ad446	-0.013356274
99	0xbccd06f5	-0.025027731
100	0xbd45f174	-0.04832597
101	0x3d90e156	0.070742294
102	0x3d6ebede	0.058287494
103	0x3ec965b8	0.39335418
104	0xbdc9dac5	-0.0985618
105	0x3ff2a7ad	1.895742
106	0xbc93f790	-0.018062383
107	0xbcb5b5bc	-0.022181384
108	0xbb1c5afd	-0.0023857944
109	0x3d44a868	0.048012167
110	0x3f55e397	0.835504
111	0x3c3b5380	0.011433482
112	0xbdfaa45f	-0.122383825
113	0x3c731197	0.014835737
114	0xbd25bf3e	-0.040465586
115	0x3d791cb3	0.060818385
116	0xbef008c7	-0.46881697
117	0x3f803be8	1.0018282
118	0x391fdcef	0.00015245726
119	0x3d90e513	0.070749424
120	0x3c92d083	0.017921692
121	0x3c2eb931	0.01066427
122	0x3b995c02	0.0046801576
123	0x3d814aa0	0.06313062
124	0xbf215116	-0.6301435
125	0x3cca9799	0.02473049
126	0xbd621e15	-0.05520447
127	0x3e1aec24	0.15129143
128	0xbb9057b4	-0.0044049863
129	0xbf3f0b94	-0.7462704
130	0x3f12c6a4	0.5733435
131	0x3d15630a	0.036471404
132	0xbce07b6e	-0.027402606
133	0xbca8b0e9	-0.02059217
134	0xbca0c05b	-0.019622972
135	0xbcbdaf49	-0.023154872
136	0x3ae83886	0.0017717041
137	0xbfbacfe8	-1.4594698
138	0x3d294922	0.04132951
139	0x3dcf1e16	0.1011316
140	0xbc1c6523	-0.009545597
141	0xbf12125c	-0.57059264
142	0x3d075cac	0.033047363
143	0x3caca34b	0.021073958
144	0xbcf0206b	-0.029312333
145	0xbd0ec8f0	-0.034859598
146	0xbd529d04	-0.051419273
147	0x3fb4b49a	1.4117615
148	0xbcff06c2	-0.031131152
149	0x3d9d3d5c	0.07677719
150	0xbd3e8970	-0.04651779
151	0xbd3fb014	-0.04679878
152	0xbd7c2594	-0.061559275
153	0x3b8373f0	0.0040116236
154	0x3e006f34	0.1254242
155	0x3cc0b5c3	0.02352417
156	0x3d013344	0.03154303
157	0x3cad8784	0.021182783
158	0xbd0e6aa9	-0.034769688
159	0xbed9dd5b	-0.42551693
160	0xbfca39e4	-1.5798917
161	0xc02862ab	-2.6310222
162	0x3e9c48e7	0.3052437
163	0xbc7e065a	-0.015504444
164	0x3ce399c3	0.02778328
165	0xbc94c4dc	-0.018160276
166	0xbf807331	-1.0035154
167	0x3d38f78f	0.045157965
168	0xbea80683	-0.32817468
169	0xbce06caf	-0.027395574
170	0x3c251917	0.010076783
171	0xbcb77d23	-0.022398537
172	0x3daab48a	0.08335216
173	0xbe82bbcd	-0.25533906
174	0xc0df83f6	-6.9848585
175	0x3f8666d5	1.0500132
176	0x3d3a57c0	0.04549384
177	0x3d9c0851	0.07618774
178	0xbec9c12e	-0.39405197
179	0x3c93880f	0.018009214
180	0x3ebdfb82	0.37105948
181	0xbdb72bbd	-0.08943889
182	0x3d0bf926	0.034173153
183	0x3e6519c0	0.22373104
184	0x406d83f9	3.71118
185	0x3d8a0242	0.06738712
186	0x3c691ba2	0.01422778
187	0x3f2bafb9	0.67065006
188	0xbda56b5d	-0.080771185
189	0xbee2b9f5	-0.442825
190	0xbd1273a6	-0.035754822
191	0xbd8473df	-0.06467413
192	0xc0142169	-2.3145392
193	0xbe9d3180	-0.30701828
194	0x3e27c392	0.16383198
195	0x3cb5c81b	0.022190144
196	0x3cd1d241	0.025612952
197	0xbb194e39	-0.0023392572
198	0xbd32dace	-0.0436657
199	0x3feb2cf2	1.8373091
200	0x3c18d2ac	0.009327572
201	0x3fa0e625	1.2570235
202	0x3eb4b0ef	0.3529124
203	0x3f8ba40f	1.0909442
204	0xbfe0cead	-1.7563072
205	0x3ea3312e	0.3187346
206	0x3dfcf88d	0.12352095
207	0x3d3e489a	0.046455957
208	0xbd268a66	-0.04065933
209	0xbe32c332	-0.17457274
210	0x3d271ec2	0.040800817
211	0xbed5d536	-0.4176423
212	0x3f115d78	0.56783247
213	0xbe85f64e	-0.26164478
214	0x3fe7a96e	1.8098581
215	0xbcdf6693	-0.02727059
216	0x3d415616	0.04720124
217	0xc01c4b91	-2.4421122
218	0x3d68b767	0.05681553
219	0xbe1b44c8	-0.15162957
220	0x3c346d1c	0.011012342
221	0xbf772c8e	-0.9655236
222	0xbba678e6	-0.00508033
223	0x3e32220e	0.17395803
224	0xbd0578dd	-0.032585967
225	0xbdc1c834	-0.09462014
226	0xbe41f911	-0.18942668
227	0xbfa4995c	-1.2859302
228	0x3dc9c594	0.09852138
229	0xbd2b536b	-0.0418276
230	0x4064596d	3.567958
231	0xbf8d4864	-1.1037717
232	0x3f81874f	1.0119418
233	0x3d2ff89f	0.042961713
234	0xc0a1fbc2	-5.061982
235	0xbfa5157a	-1.2897179
236	0xbfb0c5c9	-1.3810359
237	0xbbdeaaa2	-0.0067952434
238	0xbce038ba	-0.0273708
239	0xbca561ef	-0.0201883
240	0x3e784b2f	0.2424743
241	0xc01579bc	-2.335555
242	0xbf84c195	-1.0371577
243	0xbd6d8c84	-0.057995334
244	0x3f8d8837	1.1057194
245	0x3eccb247	0.39979765
246	0x3ca39e1e	0.019972857
247	0x3d2c68da	0.04209218
248	0xbcc30546	-0.023806226
249	0x3c7939cb	0.015211533
250	0x3b00876b	0.0019611965
251	0x3e37b7af	0.17941163
252	0x3f09c26b	0.53812283
253	0x3e040344	0.1289187
254	0xbf26e1eb	-0.65188473
255	0xbdcf472a	-0.10120995

model.4.bias f4 [256]
0	0x3e1f4b8f	0.15556167
1	0xbd3ac224	-0.045595303
2	0xbdc989e0	-0.09840751
3	0xbdb4e921	-0.08833528
4	0x3e0cbf2b	0.137448
5	0xbce1e742	-0.027576093
6	0xbdd9356a	-0.10605891
7	0x3e9f5160	0.31116772
8	0xbd5160d0	-0.05111772
9	0xbe75d027	-0.24005185
10	0xbe9c31c0	-0.30506706
11	0xbd00499c	-0.0313202
12	0xbe8ebb93	-0.27877483
13	0xbe508ab5	-0.20365413
14	0xbeaf9619	-0.34294203
15	0xbdb56d0a	-0.08858688
16	0xbe512ab2	-0.20426443
17	0xbe614909	-0.22000517
18	0xbdce1f90	-0.10064614
19	0xbdee0843	-0.116226695
20	0xbda48a32	-0.08034171
21	0xbf3d52eb	-0.7395465
22	0xbd720b09	-0.059092555
23	0xbdb07c2f	-0.08617436
24	0xbe8948a4	-0.26813233
25	0xbd8bf29c	-0.068333834
26	0xbe880759	-0.26568106
27	0xbdc51d32	-0.09624709
28	0x3e19ba1c	0.15012401
29	0x3aa214ed	0.0012365856
30	0xbdcc18ff	-0.09965705
31	0xbdb66f42	-0.089079395
32	0xbdf25ca5	-0.11834077
33	0xbe515683	-0.20443158
34	0xbe05dd4a	-0.13072696
35	0xbf049da5	-0.51803046
36	0xbe4c683a	-0.19961634
37	0x3e2588a4	0.16165406
38	0xbcdc6185	-0.02690197
39	0xbde3734f	-0.11105978
40	0x3eaa73ca	0.33291465
41	0xbe20463e	-0.15651795
42	0x3dfd9978	0.123827875
43	0xbe266f73	-0.16253452
44	0x3e7cf07e	0.24701115
45	0xbdeebdd7	-0.11657303
46	0x3b4af16f	0.003096666
47	0xbdc0878d	-0.09400854
48	0xbe0cb5cf	-0.1374123
49	0xbf66eb2e	-0.90202606
50	0xbdb59083	-0.08865454
51	0xbef68c90	-0.48154116
52	0xbd60efd2	-0.05491621
53	0x3e426f75	0.1898783
54	0xbe097a78	-0.13425624
55	0xbeee2ca0	-0.4651842
56	0x3eb3bf20	0.35106754
57	0xbe0fb207	-0.14032756
58	0xbe1ac431	-0.15113904
59	0xbc7e86ad	-0.015535039
60	0xbdc8cd8e	-0.098048314
61	0xbeb1ecd1	-0.3475099
62	0xbe90cfec	-0.28283632
63	0xbe89ab4a	-0.26888496
64	0xbeaf9c7b	-0.34299073
65	0xbd983355	-0.07431666
66	0xbd76eaf7	-0.060282674
67	0x3e6b2470	0.22963119
68	0xbdc84567	-0.097788624
69	0x3da89dbf	0.08233213
70	0xbecd5ea8	-0.4011128
71	0xbdc961a2	-0.09833075
72	0xbdc7e224	-0.0975993
73	0xbdfb381e	-0.12266563
74	0xbe4d8ab4	-0.20072442
75	0xbd80125b	-0.06253501
76	0xbd5a7779	-0.053336594
77	0x3e826355	0.2546641
78	0x3e8ed4fa	0.27896863
79	0xbd76a2e4	-0.06021394
80	0xbece8fb5	-0.40344015
81	0xbf81d5ee	-1.0143411
82	0x3d5d77f4	0.054069474
83	0xbd799ae0	-0.060938716
84	0xbda22ec5	-0.07919077
85	0xbf00165d	-0.50034124
86	0x3d6d83fa	0.05798719
87	0xbdd9ef08	-0.10641295
88	0xbd772e75	-0.06034704
89	0x3e225a11	0.1585467
90	0x3e4806e7	0.19533883
91	0xbc62bef0	-0.013839468
92	0xbe087f11	-0.13329722
93	0xbed46335	-0.4148194
94	0xbdd1718e	-0.10226737
95	0xbd2215db	-0.039571624
96	0xbe1093d8	-0.14118898
97	0xbe600b21	-0.21879245
98	0xbdd10d3f	-0.102076046
99	0x3e340bf2	0.17582682
100	0xbcaf2731	-0.021380993
101	0xbef01759	-0.46892813
102	0xbdb87fd4	-0.09008756
103	0xbe9e6c87	-0.30942175
104	0x3e0515a0	0.1299653
105	0x3ecf7d96	0.40525502
106	0x3c7d98bc	0.015478309
107	0xbde3d178	-0.11123937
108	0xbefb53d1	-0.49087384
109	0x3ee62dd5	0.44956842
110	0xbc688331	-0.014191435
111	0x3e5b5a57	0.2142118
112	0xbdbdb7d6	-0.092635795
113	0xbda4b89b	-0.08043023
114	0xbd504ea8	-0.050856262
115	0xbde7c137	-0.1131615
116	0xbe7a514d	-0.24445076
117	0xbe23b695	-0.15987618
118	0x3e9ecfa3	0.3101779
119	0x3d90e009	0.07073981
120	0xbe076141	-0.13220693
121	0xbe8de7b9	-0.27715853
122	0x3e8e2931	0.27765802
123	0xbdcf93db	-0.10135623
124	0xbdcdfd33	-0.100580595
125	0xbdc61dc1	-0.09673644
126	0x3d143ec9	0.03619269
127	0xbda08cb4	-0.07839337
128	0xbd84aa9d	-0.064778544
129	0xbecaf037	-0.39636394
130	0xbe0b121b	-0.13581125
131	0xbe1b7a61	-0.15183403
132	0xbd3a9af0	-0.045557916
133	0xbd124000	-0.035705566
134	0xbd846b50	-0.06465781
135	0x3db30315	0.08740822
136	0xbdb1873d	-0.08668373
137	0x3f0c2b2d	0.5475338
138	0x3d218cee	0.03944104
139	0xbdbd7555	-0.09250895
140	0xbeb1a0b8	-0.3469293
141	0xbe007475	-0.12544425
142	0xbdc720bd	-0.09723041
143	0xbdbdb923	-0.09263828
144	0xbf0596b5	-0.52183086
145	0xbeee0123	-0.46485242
146	0x3e0f324e	0.13984033
147	0x3e27d358	0.16389215
148	0xbd9a7fab	-0.07543882
149	0x3ca0261d	0.019549424
150	0xbd922026	-0.07135038
151	0x3ddab9a5	0.1067994
152	0x3e2f1009	0.1709596
153	0x3e812d2e	0.25229782
154	0xbe01c41b	-0.12672465
155	0xbdcc3d71	-0.099726565
156	0x3eae6d4d	0.34067765
157	0xbd840826	-0.06446867
158	0x3d377589	0.044789825
159	0xbf0a3f56	-0.5400289
160	0xbde7f3b2	-0.11325778
161	0xbc8aedd8	-0.016959116
162	0xbe5da481	-0.21644785
163	0xbd39170f	-0.045188006
164	0x3c884b77	0.016637547
165	0x3d099348	0.033587724
166	0xbdd5f969	-0.10447962
167	0xbd893324	-0.066992074
168	0xbdfd8305	-0.123785056
169	0xbdf868b4	-0.121293455
170	0xbe1cee52	-0.15325287
171	0x3e0dbd92	0.13841847
172	0xbe32fafb	-0.17478554
173	0xbdd8846c	-0.105721325
174	0xbeb8b078	-0.36072135
175	0xbd6a1570	-0.05714935
176	0xbeae0967	-0.33991548
177	0xbdd2ee32	-0.102993384
178	0xbe23754e	-0.15962717
179	0x3dee6257	0.116398506
180	0xbc642a94	-0.013926167
181	0xbd8dac18	-0.0691759
182	0xbdca075f	-0.09864687
183	0xbe14ebb0	-0.14543033
184	0xbdd70d3b	-0.105005704
185	0xbf2948ad	-0.6612652
186	0xbe9bbd6d	-0.30417958
187	0xbe0b9eac	-0.13634747
188	0x3a445a69	0.0007490279
189	0xbeabcdc8	-0.33555436
190	0x3e4ae3ff	0.19813536
191	0xbdda525e	-0.106602415
192	0xbdfa6d44	-0.12227872
193	0xbd899fa1	-0.067199
194	0x3e8aa592	0.27079445
195	0xbe0a82bd	-0.13526435
196	0x3e506f53	0.20354967
197	0x3e6a50f1	0.22882439
198	0x3e8b275b	0.27178463
199	0xbee08321	-0.43850043
200	0xbd590233	-0.052980613
201	0xbee3cf83	-0.44494256
202	0x3e019a8d	0.12656613
203	0x3e6280b3	0.22119407
204	0xbde39510	-0.11112416
205	0xbf8a0d5e	-1.0785329
206	0x3cd89640	0.026438832
207	0x3dd8fefa	0.10595508
208	0x3e4471d7	0.19184051
209	0xbf0a3f21	-0.5400258
210	0xbf0dbd95	-0.55367404
211	0xbe0740cb	-0.1320831
212	0xbe977e70	-0.29588652
213	0xbf825b9b	-1.0184206
214	0xbe58bd72	-0.21166018
215	0x3e0ac436	0.13551411
216	0x3e1c28a5	0.1524988
217	0x3e1a8610	0.15090203
218	0xbe6fda63	-0.23423152
219	0xbe7a703a	-0.24456874
220	0x3e1fdca6	0.15611514
221	0x3f0ff6e7	0.5623612
222	0xbda78965	-0.08180503
223	0xbd6eec74	-0.058330968
224	0xbd18441b	-0.037174325
225	0xbd02ef28	-0.03196636
226	0xbea61df2	-0.3244472
227	0xbf358755	-0.70909625
228	0x3e997594	0.29972517
229	0xbed18bcb	-0.40926966
230	0xbdc9f493	-0.09861102
231	0xbeca482d	-0.3950819
232	0xbd4df94a	-0.05028657
233	0xbe5b0f72	-0.2139261
234	0xbe93c07e	-0.28857797
235	0xbdd43342	-0.10361339
236	0xbdf3c3ba	-0.11902566
237	0xbde455f2	-0.11149205
238	0xbda28d6a	-0.07937129
239	0x3e30ad76	0.1725367
240	0xbd3ca67b	-0.046057206
241	0xbed8fd8c	-0.4238094
242	0xbdff54ad	-0.124673225
243	0xbda96b39	-0.08272404
244	0x3e5d4553	0.21608476
245	0xbde9e2e9	-0.11420233
246	0xbdc6b714	-0.09702888
247	0xbdc5f9b7	-0.0966677
248	0xbe3a6043	-0.18200783
249	0xbdd73190	-0.105075
250	0x3e1e9219	0.1548542
251	0xbd9a303b	-0.075287305
252	0xbe4c2365	-0.19935377
253	0xbde6ab1c	-0.11263105
254	0xbdc39211	-0.09549344
255	0xbd8ab04e	-0.06771909

model.6.weight f4 [3, 256]
0	0x3ebd6b92	0.36996132
1	0x3d1e6fde	0.038680904
2	0x3cc3d146	0.0239035
3	0x3b974cc4	0.0046173055
4	0x3f273c7c	0.65326667
5	0xbd9cbbd2	-0.076530114
6	0x3bcd1f7d	0.006259857
7	0x3e1e93cf	0.15486072
8	0xbd16466a	-0.036688246
9	0x40760fcb	3.844714
10	0x3fa88eb4	1.316855
11	0x3cb8f217	0.022576375
12	0x3d327e4e	0.043577485
13	0xbe10923a	-0.14118281
14	0xbd1fd5e7	-0.039022353
15	0x3d45adff	0.04826164
16	0xbf01e78c	-0.5074394
17	0xbfb6aa2f	-1.4270686
18	0x3cc36c4a	0.023855347
19	0x3d2ff7f2	0.04296107
20	0x3cd1ef32	0.025626753
21	0xbf2a252e	-0.6646298
22	0x3f11851f	0.5684375
23	0xbca063f1	-0.019578906
24	0xbe3a4d89	-0.1819364
25	0x3c9ae2e6	0.018907022
26	0xbea0f3cd	-0.31436005
27	0xbc4325fc	-0.011910912
28	0xbe15a98f	-0.14615463
29	0x3e857f50	0.26073694
30	0x3cde41c8	0.027130976
31	0x3cbe5bb8	0.023237094
32	0xbd0c7b07	-0.034297016
33	0x3f040650	0.5157213
34	0x3ecdfd0f	0.4023213
35	0x3f8523ab	1.040151
36	0xbe761306	-0.24030694
37	0xbeb7b2c9	-0.3587859
38	0xbfa2ad8c	-1.2709212
39	0xbd6ff6d5	-0.058585007
40	0x3f08130d	0.5315407
41	0x3f5c060d	0.8594673
42	0x3c6f533b	0.014607246
43	0xbee68957	-0.45026657
44	0xbf4874f7	-0.78303474
45	0x3cec49a9	0.028843718
46	0xbe9afe53	-0.3027216
47	0x3c9861aa	0.018601257
48	0x3ae3f87d	0.0017392781
49	0xbe9271b7	-0.28602383
50	0x3f8222d8	1.0166883
51	0xbf3f7500	-0.747879
52	0xbbb07252	-0.005384722
53	0x3e92e269	0.28688362
54	0x3faf68c1	1.3703843
55	0x3e65277a	0.2237834
56	0x3f0dd2b2	0.5539962
57	0x3f212d53	0.62959784
58	0x3c3bf9f8	0.011473171
59	0x3cdc7d55	0.026915232
60	0x3c512b8e	0.012766732
61	0x3d629f67	0.0553278
62	0xbe6cc2ab	-0.23121135
63	0x3d85e068	0.06536943
64	0x3e62cf1e	0.22149321
65	0x3cdf28d1	0.027241142
66	0xbe55ebd8	-0.20890749
67	0x3fbcf79e	1.4763067
68	0xbb2ad53c	-0.002606704
69	0xbf531f6f	-0.8246984
70	0xbd4b4bfa	-0.049633004
71	0xbd0756fd	-0.033041943
72	0x3c65ce30	0.01402621
73	0x3d0c23d5	0.03421386
74	0xbe26f8a8	-0.16305792
75	0xbe5b16ab	-0.21395366
76	0x3d08c265	0.033388514
77	0x3e27a37f	0.16370963
78	0xbcb91912	-0.022594962
79	0x3d232ea8	0.039839417
80	0x3eb8fc71	0.36130098
81	0xbf284a1d	-0.6573809
82	0x3e2da3dc	0.16957039
83	0xbc6fd4af	-0.01463811
84	0x3d2f052e	0.04272955
85	0xc0186f0c	-2.3817778
86	0x3e27a909	0.16373076
87	0xbd656997	-0.0560089
88	0xbcd93b74	-0.026517607
89	0xbe201ac8	-0.15635216
90	0xbe8018d6	-0.25018948
91	0x3d8f3cde	0.06994031
92	0xbc3dce14	-0.011584777
93	0xbdbc4d40	-0.09194422
94	0xbeb72a1f	-0.35774323
95	0x3ef32b01	0.47493747
96	0xbb00cc36	-0.001965297
97	0x3d8ceaec	0.06880745
98	0x3d0d4e99	0.034498785
99	0x3f5eb8f8	0.8700099
100	0x3d7ce5db	0.061742645
101	0x3e518142	0.20459464
102	0x3ba5ea12	0.0050633037
103	0x3ecc666f	0.399219
104	0xbf27c8d9	-0.65540844
105	0x3e29d4bb	0.16585056
106	0x3eb39c6c	0.35080278
107	0x3c123361	0.0089233825
108	0xbed42996	-0.41437978
109	0x3e14dc86	0.14537248
110	0x3eac5a7f	0.33662793
111	0xbe64327f	-0.22284888
112	0xbbcd966f	-0.0062740366
113	0xbc35cd6d	-0.011096341
114	0xbd2de316	-0.042452894
115	0xbb1710cb	-0.002305078
116	0x3eecc3d0	0.46243143
117	0xbc3c9a6f	-0.011511429
118	0xbe844a5b	-0.2583798
119	0x3e18b87c	0.14914125
120	0xbc162830	-0.009164855
121	0xbd7cb314	-0.06169422
122	0xbf718f69	-0.9435945
123	0x3b5bbd7c	0.003352969
124	0xbf185436	-0.59503496
125	0x3c871d24	0.016493388
126	0x3f6d6f41	0.92747885
127	0x3d4236c9	0.04741553
128	0xbcc93add	-0.024564201
129	0xbda193a8	-0.07889491
130	0x3f39864f	0.72470564
131	0xbe518ad1	-0.2046311
132	0xbcd6f094	-0.026237763
133	0x3ceda9b6	0.029011589
134	0x3cad85b4	0.021181919
135	0x3eb15ac8	0.34639573
136	0x3f9ccf5f	1.2250785
137	0xbe6ed76b	-0.23324363
138	0xbe8ad0e7	-0.27112505
139	0x3c3496c0	0.01102227
140	0xbe75b6b2	-0.23995474
141	0x40439dba	3.0565019
142	0xbc85f6a3	-0.016352957
143	0x3d203bc1	0.039119486
144	0x3ff698ad	1.9265343
145	0xbec2e094	-0.38061965
146	0x3e59e03e	0.21276948
147	0xbee58c70	-0.44833708
148	0x3d701504	0.058613792
149	0x3e512c8d	0.20427151
150	0x3b92ebc8	0.0044836737
151	0xbf296f93	-0.66185874
152	0xbe3fcafa	-0.18729773
153	0xbe16146d	-0.1465623
154	0x3c4427bf	0.011972367
155	0xbc3ee197	-0.0116504645
156	0xbeacec40	-0.33773994
157	0x3a361022	0.0006945153
158	0x3e2835c1	0.16426755
159	0xbdf04f69	-0.11733896
160	0x3f2b8398	0.6699767
161	0x3bb5559b	0.0055338866
162	0x3fc3a857	1.5285748
163	0x3c851148	0.016243592
164	0xbd800d4f	-0.062525384
165	0x3e00da80	0.12583351
166	0x3c3e7d33	0.0116265295
167	0xbc7ca590	-0.015420333
168	0x3fbfdd05	1.4989325
169	0xbca6c715	-0.020358602
170	0xbe9426fc	-0.28935993
171	0xbf8665a0	-1.0499763
172	0xbe711130	-0.23541713
173	0x3d9f6021	0.07782007
174	0xbea35822	-0.31903177
175	0x3c3150df	0.010822504
176	0x3dfd274d	0.12361012
177	0x3dc2ad99	0.095057674
178	0xbf716c90	-0.9430628
179	0xbf810c42	-1.0081866
180	0x3f8b330d	1.0874954
181	0x3adec3a3	0.001699556
182	0xbceb3cab	-0.028715452
183	0x3e06dc1c	0.13169903
184	0xbc93d42a	-0.018045504
185	0xbf9d8914	-1.2307458
186	0xbf20c5d2	-0.6280185
187	0x403088ad	2.758342
188	0x3e380d1a	0.17973748
189	0x3eca5120	0.39515018
190	0xbe4e0876	-0.20120415
191	0x3b10a3c0	0.002207026
192	0x3d47e71f	0.0488044
193	0xbcd0e56f	-0.025500027
194	0x3f3285cc	0.6973541
195	0x3e2d7e79	0.16942777
196	0x3e33e5f0	0.17568183
197	0x3e6ed700	0.23324203
198	0xbec118ed	-0.3771433
199	0xbef849b4	-0.4849373
200	0xbd2016ef	-0.03908437
201	0x3dc73760	0.09727359
202	0xbe2e8450	-0.1704266
203	0xbea7f23f	-0.32802007
204	0xbc3173ea	-0.010830859
205	0xbf0efcc3	-0.55854434
206	0xbf5fc5c6	-0.87411153
207	0xbef4bd16	-0.4780051
208	0xbec04297	-0.37550804
209	0xbf1a3254	-0.60233045
210	0x3f8e3897	1.111102
211	0xbd070dec	-0.03297226
212	0x3ee1b790	0.4408536
213	0xbf115095	-0.56763583
214	0x3e9dd001	0.30822757
215	0x3f063629	0.5242639
216	0xbe84acad	-0.2591299
217	0xbdb82d5a	-0.08993025
218	0x3f9c739a	1.2222779
219	0x405b6ebc	3.4286337
220	0x3d51904b	0.051163
221	0xbf0fb22c	-0.56131244
222	0xbc63e022	-0.013908418
223	0xbb131f1e	-0.0022448967
224	0xbcb86fcc	-0.022514246
225	0x3ccf5412	0.025308643
226	0xbf742837	-0.95373863
227	0xbdb43db0	-0.088008285
228	0x3def7da7	0.11693888
229	0xc00d19fe	-2.2047114
230	0x3add98b2	0.0016906469
231	0x40abc0b7	5.3672748
232	0xbc8d1e63	-0.017226404
233	0x3e145454	0.14485294
234	0x3eeb43ca	0.45950156
235	0xbc278ce1	-0.010226459
236	0xbcaf58e6	-0.021404695
237	0xbd42bf23	-0.047545563
238	0x3c14cf76	0.009082666
239	0x3de3c77b	0.11122032
240	0x3ba44b0a	0.005013828
241	0x3ec722a9	0.3889363
242	0xbf12750d	-0.57209855
243	0x3af82d4c	0.0018934398
244	0x3e793bdd	0.24339242
245	0x3c252384	0.010079268
246	0x3f5df7e2	0.86706364
247	0xbcac14d8	-0.021006033
248	0x3db2c839	0.08729596
249	0xbd2d669a	-0.042334177
250	0xbecc36a5	-0.3988544
251	0xbcab82a7	-0.020936323
252	0x3d1ea531	0.038731758
253	0xbcfe4e16	-0.031043094
254	0xbc9ae618	-0.018908545
255	0x3f1bceb4	0.6086228

model.6.bias f4 [3]
0	0x3ea95695	0.3307387
1	0x3d7a4a50	0.061106026
2	0x3e4cf34e	0.20014688
